<?xml version="1.0" ?>
<net name="torch-jit-export" version="11">
	<layers>
		<layer id="100" name="images" type="Parameter" version="opset1">
			<data shape="1,3,416,416" element_type="f32"/>
			<rt_info>
				<attribute name="old_api_map_element_type" version="0" value="f16"/>
			</rt_info>
			<output>
				<port id="0" precision="FP32" names="images">
					<dim>1</dim>
					<dim>3</dim>
					<dim>416</dim>
					<dim>416</dim>
					<rt_info/>
				</port>
			</output>
		</layer>
		<layer id="0" name="3473347718089" type="Const" version="opset1">
			<data offset="0" size="4" shape="1,1,1,1" element_type="f32"/>
			<output>
				<port id="0" precision="FP32">
					<dim>1</dim>
					<dim>1</dim>
					<dim>1</dim>
					<dim>1</dim>
				</port>
			</output>
		</layer>
		<layer id="1" name="3474347818899" type="Const" version="opset1">
			<data offset="4" size="4" shape="1,1,1,1" element_type="f32"/>
			<output>
				<port id="0" precision="FP32">
					<dim>1</dim>
					<dim>1</dim>
					<dim>1</dim>
					<dim>1</dim>
				</port>
			</output>
		</layer>
		<layer id="2" name="3475347917732" type="Const" version="opset1">
			<data offset="0" size="4" shape="1,1,1,1" element_type="f32"/>
			<output>
				<port id="0" precision="FP32">
					<dim>1</dim>
					<dim>1</dim>
					<dim>1</dim>
					<dim>1</dim>
				</port>
			</output>
		</layer>
		<layer id="3" name="3476348018308" type="Const" version="opset1">
			<data offset="4" size="4" shape="1,1,1,1" element_type="f32"/>
			<output>
				<port id="0" precision="FP32">
					<dim>1</dim>
					<dim>1</dim>
					<dim>1</dim>
					<dim>1</dim>
				</port>
			</output>
		</layer>
		<layer id="4" name="5732573618878" type="Const" version="opset1">
			<data offset="8" size="4" shape="1,1,1,1" element_type="f32"/>
			<output>
				<port id="0" precision="FP32">
					<dim>1</dim>
					<dim>1</dim>
					<dim>1</dim>
					<dim>1</dim>
				</port>
			</output>
		</layer>
		<layer id="5" name="5733573717351" type="Const" version="opset1">
			<data offset="12" size="4" shape="1,1,1,1" element_type="f32"/>
			<output>
				<port id="0" precision="FP32">
					<dim>1</dim>
					<dim>1</dim>
					<dim>1</dim>
					<dim>1</dim>
				</port>
			</output>
		</layer>
		<layer id="6" name="5734573817597" type="Const" version="opset1">
			<data offset="8" size="4" shape="1,1,1,1" element_type="f32"/>
			<output>
				<port id="0" precision="FP32">
					<dim>1</dim>
					<dim>1</dim>
					<dim>1</dim>
					<dim>1</dim>
				</port>
			</output>
		</layer>
		<layer id="7" name="5735573917360" type="Const" version="opset1">
			<data offset="12" size="4" shape="1,1,1,1" element_type="f32"/>
			<output>
				<port id="0" precision="FP32">
					<dim>1</dim>
					<dim>1</dim>
					<dim>1</dim>
					<dim>1</dim>
				</port>
			</output>
		</layer>
		<layer id="8" name="3553355717702" type="Const" version="opset1">
			<data offset="16" size="4" shape="1,1,1,1" element_type="f32"/>
			<output>
				<port id="0" precision="FP32">
					<dim>1</dim>
					<dim>1</dim>
					<dim>1</dim>
					<dim>1</dim>
				</port>
			</output>
		</layer>
		<layer id="9" name="3554355818704" type="Const" version="opset1">
			<data offset="20" size="4" shape="1,1,1,1" element_type="f32"/>
			<output>
				<port id="0" precision="FP32">
					<dim>1</dim>
					<dim>1</dim>
					<dim>1</dim>
					<dim>1</dim>
				</port>
			</output>
		</layer>
		<layer id="10" name="3555355918116" type="Const" version="opset1">
			<data offset="16" size="4" shape="1,1,1,1" element_type="f32"/>
			<output>
				<port id="0" precision="FP32">
					<dim>1</dim>
					<dim>1</dim>
					<dim>1</dim>
					<dim>1</dim>
				</port>
			</output>
		</layer>
		<layer id="11" name="3556356017399" type="Const" version="opset1">
			<data offset="20" size="4" shape="1,1,1,1" element_type="f32"/>
			<output>
				<port id="0" precision="FP32">
					<dim>1</dim>
					<dim>1</dim>
					<dim>1</dim>
					<dim>1</dim>
				</port>
			</output>
		</layer>
		<layer id="12" name="5742574618131" type="Const" version="opset1">
			<data offset="8" size="4" shape="1,1,1,1" element_type="f32"/>
			<output>
				<port id="0" precision="FP32">
					<dim>1</dim>
					<dim>1</dim>
					<dim>1</dim>
					<dim>1</dim>
				</port>
			</output>
		</layer>
		<layer id="13" name="5743574717885" type="Const" version="opset1">
			<data offset="12" size="4" shape="1,1,1,1" element_type="f32"/>
			<output>
				<port id="0" precision="FP32">
					<dim>1</dim>
					<dim>1</dim>
					<dim>1</dim>
					<dim>1</dim>
				</port>
			</output>
		</layer>
		<layer id="14" name="5744574817660" type="Const" version="opset1">
			<data offset="8" size="4" shape="1,1,1,1" element_type="f32"/>
			<output>
				<port id="0" precision="FP32">
					<dim>1</dim>
					<dim>1</dim>
					<dim>1</dim>
					<dim>1</dim>
				</port>
			</output>
		</layer>
		<layer id="15" name="5745574918857" type="Const" version="opset1">
			<data offset="12" size="4" shape="1,1,1,1" element_type="f32"/>
			<output>
				<port id="0" precision="FP32">
					<dim>1</dim>
					<dim>1</dim>
					<dim>1</dim>
					<dim>1</dim>
				</port>
			</output>
		</layer>
		<layer id="16" name="3803380717441" type="Const" version="opset1">
			<data offset="24" size="4" shape="1,1,1,1" element_type="f32"/>
			<output>
				<port id="0" precision="FP32">
					<dim>1</dim>
					<dim>1</dim>
					<dim>1</dim>
					<dim>1</dim>
				</port>
			</output>
		</layer>
		<layer id="17" name="3804380818110" type="Const" version="opset1">
			<data offset="28" size="4" shape="1,1,1,1" element_type="f32"/>
			<output>
				<port id="0" precision="FP32">
					<dim>1</dim>
					<dim>1</dim>
					<dim>1</dim>
					<dim>1</dim>
				</port>
			</output>
		</layer>
		<layer id="18" name="3805380918311" type="Const" version="opset1">
			<data offset="24" size="4" shape="1,1,1,1" element_type="f32"/>
			<output>
				<port id="0" precision="FP32">
					<dim>1</dim>
					<dim>1</dim>
					<dim>1</dim>
					<dim>1</dim>
				</port>
			</output>
		</layer>
		<layer id="19" name="3806381018371" type="Const" version="opset1">
			<data offset="28" size="4" shape="1,1,1,1" element_type="f32"/>
			<output>
				<port id="0" precision="FP32">
					<dim>1</dim>
					<dim>1</dim>
					<dim>1</dim>
					<dim>1</dim>
				</port>
			</output>
		</layer>
		<layer id="20" name="5752575617876" type="Const" version="opset1">
			<data offset="8" size="4" shape="1,1,1,1" element_type="f32"/>
			<output>
				<port id="0" precision="FP32">
					<dim>1</dim>
					<dim>1</dim>
					<dim>1</dim>
					<dim>1</dim>
				</port>
			</output>
		</layer>
		<layer id="21" name="5753575717576" type="Const" version="opset1">
			<data offset="12" size="4" shape="1,1,1,1" element_type="f32"/>
			<output>
				<port id="0" precision="FP32">
					<dim>1</dim>
					<dim>1</dim>
					<dim>1</dim>
					<dim>1</dim>
				</port>
			</output>
		</layer>
		<layer id="22" name="5754575818815" type="Const" version="opset1">
			<data offset="8" size="4" shape="1,1,1,1" element_type="f32"/>
			<output>
				<port id="0" precision="FP32">
					<dim>1</dim>
					<dim>1</dim>
					<dim>1</dim>
					<dim>1</dim>
				</port>
			</output>
		</layer>
		<layer id="23" name="5755575917282" type="Const" version="opset1">
			<data offset="12" size="4" shape="1,1,1,1" element_type="f32"/>
			<output>
				<port id="0" precision="FP32">
					<dim>1</dim>
					<dim>1</dim>
					<dim>1</dim>
					<dim>1</dim>
				</port>
			</output>
		</layer>
		<layer id="24" name="5702570617177" type="Const" version="opset1">
			<data offset="32" size="4" shape="1,1,1,1" element_type="f32"/>
			<output>
				<port id="0" precision="FP32">
					<dim>1</dim>
					<dim>1</dim>
					<dim>1</dim>
					<dim>1</dim>
				</port>
			</output>
		</layer>
		<layer id="25" name="5703570718707" type="Const" version="opset1">
			<data offset="36" size="4" shape="1,1,1,1" element_type="f32"/>
			<output>
				<port id="0" precision="FP32">
					<dim>1</dim>
					<dim>1</dim>
					<dim>1</dim>
					<dim>1</dim>
				</port>
			</output>
		</layer>
		<layer id="26" name="5704570818896" type="Const" version="opset1">
			<data offset="32" size="4" shape="1,1,1,1" element_type="f32"/>
			<output>
				<port id="0" precision="FP32">
					<dim>1</dim>
					<dim>1</dim>
					<dim>1</dim>
					<dim>1</dim>
				</port>
			</output>
		</layer>
		<layer id="27" name="5705570916997" type="Const" version="opset1">
			<data offset="36" size="4" shape="1,1,1,1" element_type="f32"/>
			<output>
				<port id="0" precision="FP32">
					<dim>1</dim>
					<dim>1</dim>
					<dim>1</dim>
					<dim>1</dim>
				</port>
			</output>
		</layer>
		<layer id="28" name="3213321717720" type="Const" version="opset1">
			<data offset="0" size="4" shape="1,1,1,1" element_type="f32"/>
			<output>
				<port id="0" precision="FP32">
					<dim>1</dim>
					<dim>1</dim>
					<dim>1</dim>
					<dim>1</dim>
				</port>
			</output>
		</layer>
		<layer id="29" name="3214321817045" type="Const" version="opset1">
			<data offset="4" size="4" shape="1,1,1,1" element_type="f32"/>
			<output>
				<port id="0" precision="FP32">
					<dim>1</dim>
					<dim>1</dim>
					<dim>1</dim>
					<dim>1</dim>
				</port>
			</output>
		</layer>
		<layer id="30" name="3215321917525" type="Const" version="opset1">
			<data offset="0" size="4" shape="1,1,1,1" element_type="f32"/>
			<output>
				<port id="0" precision="FP32">
					<dim>1</dim>
					<dim>1</dim>
					<dim>1</dim>
					<dim>1</dim>
				</port>
			</output>
		</layer>
		<layer id="31" name="3216322018395" type="Const" version="opset1">
			<data offset="4" size="4" shape="1,1,1,1" element_type="f32"/>
			<output>
				<port id="0" precision="FP32">
					<dim>1</dim>
					<dim>1</dim>
					<dim>1</dim>
					<dim>1</dim>
				</port>
			</output>
		</layer>
		<layer id="32" name="5642564617921" type="Const" version="opset1">
			<data offset="40" size="4" shape="1,1,1,1" element_type="f32"/>
			<output>
				<port id="0" precision="FP32">
					<dim>1</dim>
					<dim>1</dim>
					<dim>1</dim>
					<dim>1</dim>
				</port>
			</output>
		</layer>
		<layer id="33" name="5643564718677" type="Const" version="opset1">
			<data offset="44" size="4" shape="1,1,1,1" element_type="f32"/>
			<output>
				<port id="0" precision="FP32">
					<dim>1</dim>
					<dim>1</dim>
					<dim>1</dim>
					<dim>1</dim>
				</port>
			</output>
		</layer>
		<layer id="34" name="5644564818059" type="Const" version="opset1">
			<data offset="40" size="4" shape="1,1,1,1" element_type="f32"/>
			<output>
				<port id="0" precision="FP32">
					<dim>1</dim>
					<dim>1</dim>
					<dim>1</dim>
					<dim>1</dim>
				</port>
			</output>
		</layer>
		<layer id="35" name="5645564918674" type="Const" version="opset1">
			<data offset="44" size="4" shape="1,1,1,1" element_type="f32"/>
			<output>
				<port id="0" precision="FP32">
					<dim>1</dim>
					<dim>1</dim>
					<dim>1</dim>
					<dim>1</dim>
				</port>
			</output>
		</layer>
		<layer id="36" name="2523252718875" type="Const" version="opset1">
			<data offset="0" size="4" shape="1,1,1,1" element_type="f32"/>
			<output>
				<port id="0" precision="FP32">
					<dim>1</dim>
					<dim>1</dim>
					<dim>1</dim>
					<dim>1</dim>
				</port>
			</output>
		</layer>
		<layer id="37" name="2524252818119" type="Const" version="opset1">
			<data offset="48" size="4" shape="1,1,1,1" element_type="f32"/>
			<output>
				<port id="0" precision="FP32">
					<dim>1</dim>
					<dim>1</dim>
					<dim>1</dim>
					<dim>1</dim>
				</port>
			</output>
		</layer>
		<layer id="38" name="2525252917027" type="Const" version="opset1">
			<data offset="0" size="4" shape="1,1,1,1" element_type="f32"/>
			<output>
				<port id="0" precision="FP32">
					<dim>1</dim>
					<dim>1</dim>
					<dim>1</dim>
					<dim>1</dim>
				</port>
			</output>
		</layer>
		<layer id="39" name="2526253018800" type="Const" version="opset1">
			<data offset="48" size="4" shape="1,1,1,1" element_type="f32"/>
			<output>
				<port id="0" precision="FP32">
					<dim>1</dim>
					<dim>1</dim>
					<dim>1</dim>
					<dim>1</dim>
				</port>
			</output>
		</layer>
		<layer id="40" name="5652565618734" type="Const" version="opset1">
			<data offset="40" size="4" shape="1,1,1,1" element_type="f32"/>
			<output>
				<port id="0" precision="FP32">
					<dim>1</dim>
					<dim>1</dim>
					<dim>1</dim>
					<dim>1</dim>
				</port>
			</output>
		</layer>
		<layer id="41" name="5653565717228" type="Const" version="opset1">
			<data offset="44" size="4" shape="1,1,1,1" element_type="f32"/>
			<output>
				<port id="0" precision="FP32">
					<dim>1</dim>
					<dim>1</dim>
					<dim>1</dim>
					<dim>1</dim>
				</port>
			</output>
		</layer>
		<layer id="42" name="5654565817462" type="Const" version="opset1">
			<data offset="40" size="4" shape="1,1,1,1" element_type="f32"/>
			<output>
				<port id="0" precision="FP32">
					<dim>1</dim>
					<dim>1</dim>
					<dim>1</dim>
					<dim>1</dim>
				</port>
			</output>
		</layer>
		<layer id="43" name="5655565918167" type="Const" version="opset1">
			<data offset="44" size="4" shape="1,1,1,1" element_type="f32"/>
			<output>
				<port id="0" precision="FP32">
					<dim>1</dim>
					<dim>1</dim>
					<dim>1</dim>
					<dim>1</dim>
				</port>
			</output>
		</layer>
		<layer id="44" name="3693369718281" type="Const" version="opset1">
			<data offset="52" size="4" shape="1,1,1,1" element_type="f32"/>
			<output>
				<port id="0" precision="FP32">
					<dim>1</dim>
					<dim>1</dim>
					<dim>1</dim>
					<dim>1</dim>
				</port>
			</output>
		</layer>
		<layer id="45" name="3694369818773" type="Const" version="opset1">
			<data offset="36" size="4" shape="1,1,1,1" element_type="f32"/>
			<output>
				<port id="0" precision="FP32">
					<dim>1</dim>
					<dim>1</dim>
					<dim>1</dim>
					<dim>1</dim>
				</port>
			</output>
		</layer>
		<layer id="46" name="3695369917333" type="Const" version="opset1">
			<data offset="52" size="4" shape="1,1,1,1" element_type="f32"/>
			<output>
				<port id="0" precision="FP32">
					<dim>1</dim>
					<dim>1</dim>
					<dim>1</dim>
					<dim>1</dim>
				</port>
			</output>
		</layer>
		<layer id="47" name="3696370018581" type="Const" version="opset1">
			<data offset="36" size="4" shape="1,1,1,1" element_type="f32"/>
			<output>
				<port id="0" precision="FP32">
					<dim>1</dim>
					<dim>1</dim>
					<dim>1</dim>
					<dim>1</dim>
				</port>
			</output>
		</layer>
		<layer id="48" name="5662566618914" type="Const" version="opset1">
			<data offset="40" size="4" shape="1,1,1,1" element_type="f32"/>
			<output>
				<port id="0" precision="FP32">
					<dim>1</dim>
					<dim>1</dim>
					<dim>1</dim>
					<dim>1</dim>
				</port>
			</output>
		</layer>
		<layer id="49" name="5663566717132" type="Const" version="opset1">
			<data offset="44" size="4" shape="1,1,1,1" element_type="f32"/>
			<output>
				<port id="0" precision="FP32">
					<dim>1</dim>
					<dim>1</dim>
					<dim>1</dim>
					<dim>1</dim>
				</port>
			</output>
		</layer>
		<layer id="50" name="5664566817285" type="Const" version="opset1">
			<data offset="40" size="4" shape="1,1,1,1" element_type="f32"/>
			<output>
				<port id="0" precision="FP32">
					<dim>1</dim>
					<dim>1</dim>
					<dim>1</dim>
					<dim>1</dim>
				</port>
			</output>
		</layer>
		<layer id="51" name="5665566918851" type="Const" version="opset1">
			<data offset="44" size="4" shape="1,1,1,1" element_type="f32"/>
			<output>
				<port id="0" precision="FP32">
					<dim>1</dim>
					<dim>1</dim>
					<dim>1</dim>
					<dim>1</dim>
				</port>
			</output>
		</layer>
		<layer id="52" name="5612561617405" type="Const" version="opset1">
			<data offset="56" size="4" shape="1,1,1,1" element_type="f32"/>
			<output>
				<port id="0" precision="FP32">
					<dim>1</dim>
					<dim>1</dim>
					<dim>1</dim>
					<dim>1</dim>
				</port>
			</output>
		</layer>
		<layer id="53" name="5613561718797" type="Const" version="opset1">
			<data offset="60" size="4" shape="1,1,1,1" element_type="f32"/>
			<output>
				<port id="0" precision="FP32">
					<dim>1</dim>
					<dim>1</dim>
					<dim>1</dim>
					<dim>1</dim>
				</port>
			</output>
		</layer>
		<layer id="54" name="5614561818659" type="Const" version="opset1">
			<data offset="56" size="4" shape="1,1,1,1" element_type="f32"/>
			<output>
				<port id="0" precision="FP32">
					<dim>1</dim>
					<dim>1</dim>
					<dim>1</dim>
					<dim>1</dim>
				</port>
			</output>
		</layer>
		<layer id="55" name="5615561918695" type="Const" version="opset1">
			<data offset="60" size="4" shape="1,1,1,1" element_type="f32"/>
			<output>
				<port id="0" precision="FP32">
					<dim>1</dim>
					<dim>1</dim>
					<dim>1</dim>
					<dim>1</dim>
				</port>
			</output>
		</layer>
		<layer id="56" name="3353335717690" type="Const" version="opset1">
			<data offset="0" size="4" shape="1,1,1,1" element_type="f32"/>
			<output>
				<port id="0" precision="FP32">
					<dim>1</dim>
					<dim>1</dim>
					<dim>1</dim>
					<dim>1</dim>
				</port>
			</output>
		</layer>
		<layer id="57" name="3354335818407" type="Const" version="opset1">
			<data offset="64" size="4" shape="1,1,1,1" element_type="f32"/>
			<output>
				<port id="0" precision="FP32">
					<dim>1</dim>
					<dim>1</dim>
					<dim>1</dim>
					<dim>1</dim>
				</port>
			</output>
		</layer>
		<layer id="58" name="3355335918626" type="Const" version="opset1">
			<data offset="0" size="4" shape="1,1,1,1" element_type="f32"/>
			<output>
				<port id="0" precision="FP32">
					<dim>1</dim>
					<dim>1</dim>
					<dim>1</dim>
					<dim>1</dim>
				</port>
			</output>
		</layer>
		<layer id="59" name="3356336017936" type="Const" version="opset1">
			<data offset="64" size="4" shape="1,1,1,1" element_type="f32"/>
			<output>
				<port id="0" precision="FP32">
					<dim>1</dim>
					<dim>1</dim>
					<dim>1</dim>
					<dim>1</dim>
				</port>
			</output>
		</layer>
		<layer id="60" name="5552555617240" type="Const" version="opset1">
			<data offset="68" size="4" shape="1,1,1,1" element_type="f32"/>
			<output>
				<port id="0" precision="FP32">
					<dim>1</dim>
					<dim>1</dim>
					<dim>1</dim>
					<dim>1</dim>
				</port>
			</output>
		</layer>
		<layer id="61" name="5553555717288" type="Const" version="opset1">
			<data offset="72" size="4" shape="1,1,1,1" element_type="f32"/>
			<output>
				<port id="0" precision="FP32">
					<dim>1</dim>
					<dim>1</dim>
					<dim>1</dim>
					<dim>1</dim>
				</port>
			</output>
		</layer>
		<layer id="62" name="5554555818749" type="Const" version="opset1">
			<data offset="68" size="4" shape="1,1,1,1" element_type="f32"/>
			<output>
				<port id="0" precision="FP32">
					<dim>1</dim>
					<dim>1</dim>
					<dim>1</dim>
					<dim>1</dim>
				</port>
			</output>
		</layer>
		<layer id="63" name="5555555918491" type="Const" version="opset1">
			<data offset="72" size="4" shape="1,1,1,1" element_type="f32"/>
			<output>
				<port id="0" precision="FP32">
					<dim>1</dim>
					<dim>1</dim>
					<dim>1</dim>
					<dim>1</dim>
				</port>
			</output>
		</layer>
		<layer id="64" name="2813281718296" type="Const" version="opset1">
			<data offset="76" size="4" shape="1,1,1,1" element_type="f32"/>
			<output>
				<port id="0" precision="FP32">
					<dim>1</dim>
					<dim>1</dim>
					<dim>1</dim>
					<dim>1</dim>
				</port>
			</output>
		</layer>
		<layer id="65" name="2814281817498" type="Const" version="opset1">
			<data offset="80" size="4" shape="1,1,1,1" element_type="f32"/>
			<output>
				<port id="0" precision="FP32">
					<dim>1</dim>
					<dim>1</dim>
					<dim>1</dim>
					<dim>1</dim>
				</port>
			</output>
		</layer>
		<layer id="66" name="2815281918629" type="Const" version="opset1">
			<data offset="76" size="4" shape="1,1,1,1" element_type="f32"/>
			<output>
				<port id="0" precision="FP32">
					<dim>1</dim>
					<dim>1</dim>
					<dim>1</dim>
					<dim>1</dim>
				</port>
			</output>
		</layer>
		<layer id="67" name="2816282018044" type="Const" version="opset1">
			<data offset="80" size="4" shape="1,1,1,1" element_type="f32"/>
			<output>
				<port id="0" precision="FP32">
					<dim>1</dim>
					<dim>1</dim>
					<dim>1</dim>
					<dim>1</dim>
				</port>
			</output>
		</layer>
		<layer id="68" name="5562556617420" type="Const" version="opset1">
			<data offset="68" size="4" shape="1,1,1,1" element_type="f32"/>
			<output>
				<port id="0" precision="FP32">
					<dim>1</dim>
					<dim>1</dim>
					<dim>1</dim>
					<dim>1</dim>
				</port>
			</output>
		</layer>
		<layer id="69" name="5563556718812" type="Const" version="opset1">
			<data offset="72" size="4" shape="1,1,1,1" element_type="f32"/>
			<output>
				<port id="0" precision="FP32">
					<dim>1</dim>
					<dim>1</dim>
					<dim>1</dim>
					<dim>1</dim>
				</port>
			</output>
		</layer>
		<layer id="70" name="5564556817981" type="Const" version="opset1">
			<data offset="68" size="4" shape="1,1,1,1" element_type="f32"/>
			<output>
				<port id="0" precision="FP32">
					<dim>1</dim>
					<dim>1</dim>
					<dim>1</dim>
					<dim>1</dim>
				</port>
			</output>
		</layer>
		<layer id="71" name="5565556918698" type="Const" version="opset1">
			<data offset="72" size="4" shape="1,1,1,1" element_type="f32"/>
			<output>
				<port id="0" precision="FP32">
					<dim>1</dim>
					<dim>1</dim>
					<dim>1</dim>
					<dim>1</dim>
				</port>
			</output>
		</layer>
		<layer id="72" name="3883388718443" type="Const" version="opset1">
			<data offset="0" size="4" shape="1,1,1,1" element_type="f32"/>
			<output>
				<port id="0" precision="FP32">
					<dim>1</dim>
					<dim>1</dim>
					<dim>1</dim>
					<dim>1</dim>
				</port>
			</output>
		</layer>
		<layer id="73" name="3884388817294" type="Const" version="opset1">
			<data offset="84" size="4" shape="1,1,1,1" element_type="f32"/>
			<output>
				<port id="0" precision="FP32">
					<dim>1</dim>
					<dim>1</dim>
					<dim>1</dim>
					<dim>1</dim>
				</port>
			</output>
		</layer>
		<layer id="74" name="3885388917438" type="Const" version="opset1">
			<data offset="0" size="4" shape="1,1,1,1" element_type="f32"/>
			<output>
				<port id="0" precision="FP32">
					<dim>1</dim>
					<dim>1</dim>
					<dim>1</dim>
					<dim>1</dim>
				</port>
			</output>
		</layer>
		<layer id="75" name="3886389017741" type="Const" version="opset1">
			<data offset="84" size="4" shape="1,1,1,1" element_type="f32"/>
			<output>
				<port id="0" precision="FP32">
					<dim>1</dim>
					<dim>1</dim>
					<dim>1</dim>
					<dim>1</dim>
				</port>
			</output>
		</layer>
		<layer id="76" name="5572557617552" type="Const" version="opset1">
			<data offset="68" size="4" shape="1,1,1,1" element_type="f32"/>
			<output>
				<port id="0" precision="FP32">
					<dim>1</dim>
					<dim>1</dim>
					<dim>1</dim>
					<dim>1</dim>
				</port>
			</output>
		</layer>
		<layer id="77" name="5573557718860" type="Const" version="opset1">
			<data offset="72" size="4" shape="1,1,1,1" element_type="f32"/>
			<output>
				<port id="0" precision="FP32">
					<dim>1</dim>
					<dim>1</dim>
					<dim>1</dim>
					<dim>1</dim>
				</port>
			</output>
		</layer>
		<layer id="78" name="5574557817999" type="Const" version="opset1">
			<data offset="68" size="4" shape="1,1,1,1" element_type="f32"/>
			<output>
				<port id="0" precision="FP32">
					<dim>1</dim>
					<dim>1</dim>
					<dim>1</dim>
					<dim>1</dim>
				</port>
			</output>
		</layer>
		<layer id="79" name="5575557917477" type="Const" version="opset1">
			<data offset="72" size="4" shape="1,1,1,1" element_type="f32"/>
			<output>
				<port id="0" precision="FP32">
					<dim>1</dim>
					<dim>1</dim>
					<dim>1</dim>
					<dim>1</dim>
				</port>
			</output>
		</layer>
		<layer id="80" name="2263226718326" type="Const" version="opset1">
			<data offset="0" size="4" shape="1,1,1,1" element_type="f32"/>
			<output>
				<port id="0" precision="FP32">
					<dim>1</dim>
					<dim>1</dim>
					<dim>1</dim>
					<dim>1</dim>
				</port>
			</output>
		</layer>
		<layer id="81" name="2264226817594" type="Const" version="opset1">
			<data offset="88" size="4" shape="1,1,1,1" element_type="f32"/>
			<output>
				<port id="0" precision="FP32">
					<dim>1</dim>
					<dim>1</dim>
					<dim>1</dim>
					<dim>1</dim>
				</port>
			</output>
		</layer>
		<layer id="82" name="2265226917711" type="Const" version="opset1">
			<data offset="0" size="4" shape="1,1,1,1" element_type="f32"/>
			<output>
				<port id="0" precision="FP32">
					<dim>1</dim>
					<dim>1</dim>
					<dim>1</dim>
					<dim>1</dim>
				</port>
			</output>
		</layer>
		<layer id="83" name="2266227018665" type="Const" version="opset1">
			<data offset="88" size="4" shape="1,1,1,1" element_type="f32"/>
			<output>
				<port id="0" precision="FP32">
					<dim>1</dim>
					<dim>1</dim>
					<dim>1</dim>
					<dim>1</dim>
				</port>
			</output>
		</layer>
		<layer id="84" name="3033303717735" type="Const" version="opset1">
			<data offset="0" size="4" shape="1,1,1,1" element_type="f32"/>
			<output>
				<port id="0" precision="FP32">
					<dim>1</dim>
					<dim>1</dim>
					<dim>1</dim>
					<dim>1</dim>
				</port>
			</output>
		</layer>
		<layer id="85" name="3034303817564" type="Const" version="opset1">
			<data offset="92" size="4" shape="1,1,1,1" element_type="f32"/>
			<output>
				<port id="0" precision="FP32">
					<dim>1</dim>
					<dim>1</dim>
					<dim>1</dim>
					<dim>1</dim>
				</port>
			</output>
		</layer>
		<layer id="86" name="3035303917546" type="Const" version="opset1">
			<data offset="0" size="4" shape="1,1,1,1" element_type="f32"/>
			<output>
				<port id="0" precision="FP32">
					<dim>1</dim>
					<dim>1</dim>
					<dim>1</dim>
					<dim>1</dim>
				</port>
			</output>
		</layer>
		<layer id="87" name="3036304018113" type="Const" version="opset1">
			<data offset="92" size="4" shape="1,1,1,1" element_type="f32"/>
			<output>
				<port id="0" precision="FP32">
					<dim>1</dim>
					<dim>1</dim>
					<dim>1</dim>
					<dim>1</dim>
				</port>
			</output>
		</layer>
		<layer id="88" name="2683268717816" type="Const" version="opset1">
			<data offset="96" size="4" shape="1,1,1,1" element_type="f32"/>
			<output>
				<port id="0" precision="FP32">
					<dim>1</dim>
					<dim>1</dim>
					<dim>1</dim>
					<dim>1</dim>
				</port>
			</output>
		</layer>
		<layer id="89" name="2684268818074" type="Const" version="opset1">
			<data offset="100" size="4" shape="1,1,1,1" element_type="f32"/>
			<output>
				<port id="0" precision="FP32">
					<dim>1</dim>
					<dim>1</dim>
					<dim>1</dim>
					<dim>1</dim>
				</port>
			</output>
		</layer>
		<layer id="90" name="2685268917804" type="Const" version="opset1">
			<data offset="96" size="4" shape="1,1,1,1" element_type="f32"/>
			<output>
				<port id="0" precision="FP32">
					<dim>1</dim>
					<dim>1</dim>
					<dim>1</dim>
					<dim>1</dim>
				</port>
			</output>
		</layer>
		<layer id="91" name="2686269017729" type="Const" version="opset1">
			<data offset="100" size="4" shape="1,1,1,1" element_type="f32"/>
			<output>
				<port id="0" precision="FP32">
					<dim>1</dim>
					<dim>1</dim>
					<dim>1</dim>
					<dim>1</dim>
				</port>
			</output>
		</layer>
		<layer id="92" name="2363236717987" type="Const" version="opset1">
			<data offset="0" size="4" shape="1,1,1,1" element_type="f32"/>
			<output>
				<port id="0" precision="FP32">
					<dim>1</dim>
					<dim>1</dim>
					<dim>1</dim>
					<dim>1</dim>
				</port>
			</output>
		</layer>
		<layer id="93" name="2364236817123" type="Const" version="opset1">
			<data offset="104" size="4" shape="1,1,1,1" element_type="f32"/>
			<output>
				<port id="0" precision="FP32">
					<dim>1</dim>
					<dim>1</dim>
					<dim>1</dim>
					<dim>1</dim>
				</port>
			</output>
		</layer>
		<layer id="94" name="2365236918908" type="Const" version="opset1">
			<data offset="0" size="4" shape="1,1,1,1" element_type="f32"/>
			<output>
				<port id="0" precision="FP32">
					<dim>1</dim>
					<dim>1</dim>
					<dim>1</dim>
					<dim>1</dim>
				</port>
			</output>
		</layer>
		<layer id="95" name="2366237017891" type="Const" version="opset1">
			<data offset="104" size="4" shape="1,1,1,1" element_type="f32"/>
			<output>
				<port id="0" precision="FP32">
					<dim>1</dim>
					<dim>1</dim>
					<dim>1</dim>
					<dim>1</dim>
				</port>
			</output>
		</layer>
		<layer id="96" name="2203220717150" type="Const" version="opset1">
			<data offset="108" size="4" shape="1,1,1,1" element_type="f32"/>
			<output>
				<port id="0" precision="FP32">
					<dim>1</dim>
					<dim>1</dim>
					<dim>1</dim>
					<dim>1</dim>
				</port>
			</output>
		</layer>
		<layer id="97" name="2204220817057" type="Const" version="opset1">
			<data offset="112" size="4" shape="1,1,1,1" element_type="f32"/>
			<output>
				<port id="0" precision="FP32">
					<dim>1</dim>
					<dim>1</dim>
					<dim>1</dim>
					<dim>1</dim>
				</port>
			</output>
		</layer>
		<layer id="98" name="2205220917648" type="Const" version="opset1">
			<data offset="108" size="4" shape="1,1,1,1" element_type="f32"/>
			<output>
				<port id="0" precision="FP32">
					<dim>1</dim>
					<dim>1</dim>
					<dim>1</dim>
					<dim>1</dim>
				</port>
			</output>
		</layer>
		<layer id="99" name="2206221018893" type="Const" version="opset1">
			<data offset="112" size="4" shape="1,1,1,1" element_type="f32"/>
			<output>
				<port id="0" precision="FP32">
					<dim>1</dim>
					<dim>1</dim>
					<dim>1</dim>
					<dim>1</dim>
				</port>
			</output>
		</layer>
		<layer id="101" name="Conv_0/WithoutBiases/fq_input_0" type="FakeQuantize" version="opset1">
			<data levels="256" auto_broadcast="numpy"/>
			<input>
				<port id="0">
					<dim>1</dim>
					<dim>3</dim>
					<dim>416</dim>
					<dim>416</dim>
				</port>
				<port id="1">
					<dim>1</dim>
					<dim>1</dim>
					<dim>1</dim>
					<dim>1</dim>
				</port>
				<port id="2">
					<dim>1</dim>
					<dim>1</dim>
					<dim>1</dim>
					<dim>1</dim>
				</port>
				<port id="3">
					<dim>1</dim>
					<dim>1</dim>
					<dim>1</dim>
					<dim>1</dim>
				</port>
				<port id="4">
					<dim>1</dim>
					<dim>1</dim>
					<dim>1</dim>
					<dim>1</dim>
				</port>
			</input>
			<output>
				<port id="5" precision="FP32">
					<dim>1</dim>
					<dim>3</dim>
					<dim>416</dim>
					<dim>416</dim>
				</port>
			</output>
		</layer>
		<layer id="102" name="Conv_0/WithoutBiases/fq_weights_1/scale1283918839" type="Const" version="opset1">
			<data offset="116" size="96" shape="24,1,1,1" element_type="f32"/>
			<output>
				<port id="0" precision="FP32">
					<dim>24</dim>
					<dim>1</dim>
					<dim>1</dim>
					<dim>1</dim>
				</port>
			</output>
		</layer>
		<layer id="103" name="Constant_134576879615/restored_convert/quantized1283117801" type="Const" version="opset1">
			<data offset="212" size="648" shape="24,3,3,3" element_type="i8"/>
			<output>
				<port id="0" precision="I8">
					<dim>24</dim>
					<dim>3</dim>
					<dim>3</dim>
					<dim>3</dim>
				</port>
			</output>
		</layer>
		<layer id="104" name="Constant_134576879615/restored_convert/quantized/to_f32" type="Convert" version="opset1">
			<data destination_type="f32"/>
			<input>
				<port id="0">
					<dim>24</dim>
					<dim>3</dim>
					<dim>3</dim>
					<dim>3</dim>
				</port>
			</input>
			<output>
				<port id="1" precision="FP32">
					<dim>24</dim>
					<dim>3</dim>
					<dim>3</dim>
					<dim>3</dim>
				</port>
			</output>
		</layer>
		<layer id="105" name="Conv_0/WithoutBiases/fq_weights_1/mulpiply_by_scale" type="Multiply" version="opset1">
			<data auto_broadcast="numpy"/>
			<input>
				<port id="0">
					<dim>24</dim>
					<dim>3</dim>
					<dim>3</dim>
					<dim>3</dim>
				</port>
				<port id="1">
					<dim>24</dim>
					<dim>1</dim>
					<dim>1</dim>
					<dim>1</dim>
				</port>
			</input>
			<output>
				<port id="2" precision="FP32">
					<dim>24</dim>
					<dim>3</dim>
					<dim>3</dim>
					<dim>3</dim>
				</port>
			</output>
		</layer>
		<layer id="106" name="Conv_0/WithoutBiases" type="Convolution" version="opset1">
			<data auto_pad="explicit" strides="1,1" dilations="1,1" pads_begin="1,1" pads_end="1,1"/>
			<rt_info>
				<attribute name="preprocessing" version="0"/>
			</rt_info>
			<input>
				<port id="0">
					<dim>1</dim>
					<dim>3</dim>
					<dim>416</dim>
					<dim>416</dim>
				</port>
				<port id="1">
					<dim>24</dim>
					<dim>3</dim>
					<dim>3</dim>
					<dim>3</dim>
				</port>
			</input>
			<output>
				<port id="2" precision="FP32">
					<dim>1</dim>
					<dim>24</dim>
					<dim>416</dim>
					<dim>416</dim>
				</port>
			</output>
		</layer>
		<layer id="107" name="Reshape_20769018911" type="Const" version="opset1">
			<data offset="860" size="48" shape="1,24,1,1" element_type="f16"/>
			<output>
				<port id="0" precision="FP16">
					<dim>1</dim>
					<dim>24</dim>
					<dim>1</dim>
					<dim>1</dim>
				</port>
			</output>
		</layer>
		<layer id="108" name="Reshape_2076909616/restored_convert" type="Convert" version="opset1">
			<data destination_type="f32"/>
			<rt_info>
				<attribute name="decompression" version="0"/>
			</rt_info>
			<input>
				<port id="0">
					<dim>1</dim>
					<dim>24</dim>
					<dim>1</dim>
					<dim>1</dim>
				</port>
			</input>
			<output>
				<port id="1" precision="FP32">
					<dim>1</dim>
					<dim>24</dim>
					<dim>1</dim>
					<dim>1</dim>
				</port>
			</output>
		</layer>
		<layer id="109" name="Conv_0" type="Add" version="opset1">
			<data auto_broadcast="numpy"/>
			<input>
				<port id="0">
					<dim>1</dim>
					<dim>24</dim>
					<dim>416</dim>
					<dim>416</dim>
				</port>
				<port id="1">
					<dim>1</dim>
					<dim>24</dim>
					<dim>1</dim>
					<dim>1</dim>
				</port>
			</input>
			<output>
				<port id="2" precision="FP32" names="onnx::Sigmoid_193">
					<dim>1</dim>
					<dim>24</dim>
					<dim>416</dim>
					<dim>416</dim>
				</port>
			</output>
		</layer>
		<layer id="110" name="Mul_2" type="Swish" version="opset4">
			<input>
				<port id="0">
					<dim>1</dim>
					<dim>24</dim>
					<dim>416</dim>
					<dim>416</dim>
				</port>
			</input>
			<output>
				<port id="1" precision="FP32" names="input">
					<dim>1</dim>
					<dim>24</dim>
					<dim>416</dim>
					<dim>416</dim>
				</port>
			</output>
		</layer>
		<layer id="111" name="Conv_3/WithoutBiases/fq_input_0" type="FakeQuantize" version="opset1">
			<data levels="256" auto_broadcast="numpy"/>
			<input>
				<port id="0">
					<dim>1</dim>
					<dim>24</dim>
					<dim>416</dim>
					<dim>416</dim>
				</port>
				<port id="1">
					<dim>1</dim>
					<dim>1</dim>
					<dim>1</dim>
					<dim>1</dim>
				</port>
				<port id="2">
					<dim>1</dim>
					<dim>1</dim>
					<dim>1</dim>
					<dim>1</dim>
				</port>
				<port id="3">
					<dim>1</dim>
					<dim>1</dim>
					<dim>1</dim>
					<dim>1</dim>
				</port>
				<port id="4">
					<dim>1</dim>
					<dim>1</dim>
					<dim>1</dim>
					<dim>1</dim>
				</port>
			</input>
			<output>
				<port id="5" precision="FP32">
					<dim>1</dim>
					<dim>24</dim>
					<dim>416</dim>
					<dim>416</dim>
				</port>
			</output>
		</layer>
		<layer id="112" name="Conv_3/WithoutBiases/fq_weights_1/scale1130918254" type="Const" version="opset1">
			<data offset="908" size="160" shape="40,1,1,1" element_type="f32"/>
			<output>
				<port id="0" precision="FP32">
					<dim>40</dim>
					<dim>1</dim>
					<dim>1</dim>
					<dim>1</dim>
				</port>
			</output>
		</layer>
		<layer id="113" name="model.1.conv.weight6949617/restored_convert/quantized1130117756" type="Const" version="opset1">
			<data offset="1068" size="8640" shape="40,24,3,3" element_type="i8"/>
			<output>
				<port id="0" precision="I8">
					<dim>40</dim>
					<dim>24</dim>
					<dim>3</dim>
					<dim>3</dim>
				</port>
			</output>
		</layer>
		<layer id="114" name="model.1.conv.weight6949617/restored_convert/quantized/to_f32" type="Convert" version="opset1">
			<data destination_type="f32"/>
			<input>
				<port id="0">
					<dim>40</dim>
					<dim>24</dim>
					<dim>3</dim>
					<dim>3</dim>
				</port>
			</input>
			<output>
				<port id="1" precision="FP32">
					<dim>40</dim>
					<dim>24</dim>
					<dim>3</dim>
					<dim>3</dim>
				</port>
			</output>
		</layer>
		<layer id="115" name="Conv_3/WithoutBiases/fq_weights_1/mulpiply_by_scale" type="Multiply" version="opset1">
			<data auto_broadcast="numpy"/>
			<input>
				<port id="0">
					<dim>40</dim>
					<dim>24</dim>
					<dim>3</dim>
					<dim>3</dim>
				</port>
				<port id="1">
					<dim>40</dim>
					<dim>1</dim>
					<dim>1</dim>
					<dim>1</dim>
				</port>
			</input>
			<output>
				<port id="2" precision="FP32">
					<dim>40</dim>
					<dim>24</dim>
					<dim>3</dim>
					<dim>3</dim>
				</port>
			</output>
		</layer>
		<layer id="116" name="Conv_3/WithoutBiases" type="Convolution" version="opset1">
			<data auto_pad="explicit" strides="2,2" dilations="1,1" pads_begin="1,1" pads_end="1,1"/>
			<input>
				<port id="0">
					<dim>1</dim>
					<dim>24</dim>
					<dim>416</dim>
					<dim>416</dim>
				</port>
				<port id="1">
					<dim>40</dim>
					<dim>24</dim>
					<dim>3</dim>
					<dim>3</dim>
				</port>
			</input>
			<output>
				<port id="2" precision="FP32">
					<dim>1</dim>
					<dim>40</dim>
					<dim>208</dim>
					<dim>208</dim>
				</port>
			</output>
		</layer>
		<layer id="117" name="Reshape_25769717693" type="Const" version="opset1">
			<data offset="9708" size="80" shape="1,40,1,1" element_type="f16"/>
			<output>
				<port id="0" precision="FP16">
					<dim>1</dim>
					<dim>40</dim>
					<dim>1</dim>
					<dim>1</dim>
				</port>
			</output>
		</layer>
		<layer id="118" name="Reshape_2576979618/restored_convert" type="Convert" version="opset1">
			<data destination_type="f32"/>
			<rt_info>
				<attribute name="decompression" version="0"/>
			</rt_info>
			<input>
				<port id="0">
					<dim>1</dim>
					<dim>40</dim>
					<dim>1</dim>
					<dim>1</dim>
				</port>
			</input>
			<output>
				<port id="1" precision="FP32">
					<dim>1</dim>
					<dim>40</dim>
					<dim>1</dim>
					<dim>1</dim>
				</port>
			</output>
		</layer>
		<layer id="119" name="Conv_3" type="Add" version="opset1">
			<data auto_broadcast="numpy"/>
			<input>
				<port id="0">
					<dim>1</dim>
					<dim>40</dim>
					<dim>208</dim>
					<dim>208</dim>
				</port>
				<port id="1">
					<dim>1</dim>
					<dim>40</dim>
					<dim>1</dim>
					<dim>1</dim>
				</port>
			</input>
			<output>
				<port id="2" precision="FP32" names="onnx::Sigmoid_196">
					<dim>1</dim>
					<dim>40</dim>
					<dim>208</dim>
					<dim>208</dim>
				</port>
			</output>
		</layer>
		<layer id="120" name="Mul_5" type="Swish" version="opset4">
			<input>
				<port id="0">
					<dim>1</dim>
					<dim>40</dim>
					<dim>208</dim>
					<dim>208</dim>
				</port>
			</input>
			<output>
				<port id="1" precision="FP32" names="input.4">
					<dim>1</dim>
					<dim>40</dim>
					<dim>208</dim>
					<dim>208</dim>
				</port>
			</output>
		</layer>
		<layer id="121" name="Conv_6/WithoutBiases/fq_input_0" type="FakeQuantize" version="opset1">
			<data levels="256" auto_broadcast="numpy"/>
			<input>
				<port id="0">
					<dim>1</dim>
					<dim>40</dim>
					<dim>208</dim>
					<dim>208</dim>
				</port>
				<port id="1">
					<dim>1</dim>
					<dim>1</dim>
					<dim>1</dim>
					<dim>1</dim>
				</port>
				<port id="2">
					<dim>1</dim>
					<dim>1</dim>
					<dim>1</dim>
					<dim>1</dim>
				</port>
				<port id="3">
					<dim>1</dim>
					<dim>1</dim>
					<dim>1</dim>
					<dim>1</dim>
				</port>
				<port id="4">
					<dim>1</dim>
					<dim>1</dim>
					<dim>1</dim>
					<dim>1</dim>
				</port>
			</input>
			<output>
				<port id="5" precision="FP32">
					<dim>1</dim>
					<dim>40</dim>
					<dim>208</dim>
					<dim>208</dim>
				</port>
			</output>
		</layer>
		<layer id="122" name="Conv_6/WithoutBiases/fq_weights_1/scale1271917762" type="Const" version="opset1">
			<data offset="9788" size="128" shape="32,1,1,1" element_type="f32"/>
			<output>
				<port id="0" precision="FP32">
					<dim>32</dim>
					<dim>1</dim>
					<dim>1</dim>
					<dim>1</dim>
				</port>
			</output>
		</layer>
		<layer id="123" name="model.2.conv.weight7019619/restored_convert/quantized1271117459" type="Const" version="opset1">
			<data offset="9916" size="11520" shape="32,40,3,3" element_type="i8"/>
			<output>
				<port id="0" precision="I8">
					<dim>32</dim>
					<dim>40</dim>
					<dim>3</dim>
					<dim>3</dim>
				</port>
			</output>
		</layer>
		<layer id="124" name="model.2.conv.weight7019619/restored_convert/quantized/to_f32" type="Convert" version="opset1">
			<data destination_type="f32"/>
			<input>
				<port id="0">
					<dim>32</dim>
					<dim>40</dim>
					<dim>3</dim>
					<dim>3</dim>
				</port>
			</input>
			<output>
				<port id="1" precision="FP32">
					<dim>32</dim>
					<dim>40</dim>
					<dim>3</dim>
					<dim>3</dim>
				</port>
			</output>
		</layer>
		<layer id="125" name="Conv_6/WithoutBiases/fq_weights_1/mulpiply_by_scale" type="Multiply" version="opset1">
			<data auto_broadcast="numpy"/>
			<input>
				<port id="0">
					<dim>32</dim>
					<dim>40</dim>
					<dim>3</dim>
					<dim>3</dim>
				</port>
				<port id="1">
					<dim>32</dim>
					<dim>1</dim>
					<dim>1</dim>
					<dim>1</dim>
				</port>
			</input>
			<output>
				<port id="2" precision="FP32">
					<dim>32</dim>
					<dim>40</dim>
					<dim>3</dim>
					<dim>3</dim>
				</port>
			</output>
		</layer>
		<layer id="126" name="Conv_6/WithoutBiases" type="Convolution" version="opset1">
			<data auto_pad="explicit" strides="1,1" dilations="1,1" pads_begin="1,1" pads_end="1,1"/>
			<input>
				<port id="0">
					<dim>1</dim>
					<dim>40</dim>
					<dim>208</dim>
					<dim>208</dim>
				</port>
				<port id="1">
					<dim>32</dim>
					<dim>40</dim>
					<dim>3</dim>
					<dim>3</dim>
				</port>
			</input>
			<output>
				<port id="2" precision="FP32">
					<dim>1</dim>
					<dim>32</dim>
					<dim>208</dim>
					<dim>208</dim>
				</port>
			</output>
		</layer>
		<layer id="127" name="Reshape_30770418305" type="Const" version="opset1">
			<data offset="21436" size="64" shape="1,32,1,1" element_type="f16"/>
			<output>
				<port id="0" precision="FP16">
					<dim>1</dim>
					<dim>32</dim>
					<dim>1</dim>
					<dim>1</dim>
				</port>
			</output>
		</layer>
		<layer id="128" name="Reshape_3077049620/restored_convert" type="Convert" version="opset1">
			<data destination_type="f32"/>
			<rt_info>
				<attribute name="decompression" version="0"/>
			</rt_info>
			<input>
				<port id="0">
					<dim>1</dim>
					<dim>32</dim>
					<dim>1</dim>
					<dim>1</dim>
				</port>
			</input>
			<output>
				<port id="1" precision="FP32">
					<dim>1</dim>
					<dim>32</dim>
					<dim>1</dim>
					<dim>1</dim>
				</port>
			</output>
		</layer>
		<layer id="129" name="Conv_6" type="Add" version="opset1">
			<data auto_broadcast="numpy"/>
			<input>
				<port id="0">
					<dim>1</dim>
					<dim>32</dim>
					<dim>208</dim>
					<dim>208</dim>
				</port>
				<port id="1">
					<dim>1</dim>
					<dim>32</dim>
					<dim>1</dim>
					<dim>1</dim>
				</port>
			</input>
			<output>
				<port id="2" precision="FP32" names="onnx::Sigmoid_199">
					<dim>1</dim>
					<dim>32</dim>
					<dim>208</dim>
					<dim>208</dim>
				</port>
			</output>
		</layer>
		<layer id="130" name="Mul_8" type="Swish" version="opset4">
			<input>
				<port id="0">
					<dim>1</dim>
					<dim>32</dim>
					<dim>208</dim>
					<dim>208</dim>
				</port>
			</input>
			<output>
				<port id="1" precision="FP32" names="input.8">
					<dim>1</dim>
					<dim>32</dim>
					<dim>208</dim>
					<dim>208</dim>
				</port>
			</output>
		</layer>
		<layer id="131" name="Conv_9/WithoutBiases/fq_input_0" type="FakeQuantize" version="opset1">
			<data levels="256" auto_broadcast="numpy"/>
			<input>
				<port id="0">
					<dim>1</dim>
					<dim>32</dim>
					<dim>208</dim>
					<dim>208</dim>
				</port>
				<port id="1">
					<dim>1</dim>
					<dim>1</dim>
					<dim>1</dim>
					<dim>1</dim>
				</port>
				<port id="2">
					<dim>1</dim>
					<dim>1</dim>
					<dim>1</dim>
					<dim>1</dim>
				</port>
				<port id="3">
					<dim>1</dim>
					<dim>1</dim>
					<dim>1</dim>
					<dim>1</dim>
				</port>
				<port id="4">
					<dim>1</dim>
					<dim>1</dim>
					<dim>1</dim>
					<dim>1</dim>
				</port>
			</input>
			<output>
				<port id="5" precision="FP32">
					<dim>1</dim>
					<dim>32</dim>
					<dim>208</dim>
					<dim>208</dim>
				</port>
			</output>
		</layer>
		<layer id="132" name="Conv_9/WithoutBiases/fq_weights_1/scale1286917426" type="Const" version="opset1">
			<data offset="21500" size="256" shape="64,1,1,1" element_type="f32"/>
			<output>
				<port id="0" precision="FP32">
					<dim>64</dim>
					<dim>1</dim>
					<dim>1</dim>
					<dim>1</dim>
				</port>
			</output>
		</layer>
		<layer id="133" name="model.3.conv.weight7089621/restored_convert/quantized1286117087" type="Const" version="opset1">
			<data offset="21756" size="18432" shape="64,32,3,3" element_type="i8"/>
			<output>
				<port id="0" precision="I8">
					<dim>64</dim>
					<dim>32</dim>
					<dim>3</dim>
					<dim>3</dim>
				</port>
			</output>
		</layer>
		<layer id="134" name="model.3.conv.weight7089621/restored_convert/quantized/to_f32" type="Convert" version="opset1">
			<data destination_type="f32"/>
			<input>
				<port id="0">
					<dim>64</dim>
					<dim>32</dim>
					<dim>3</dim>
					<dim>3</dim>
				</port>
			</input>
			<output>
				<port id="1" precision="FP32">
					<dim>64</dim>
					<dim>32</dim>
					<dim>3</dim>
					<dim>3</dim>
				</port>
			</output>
		</layer>
		<layer id="135" name="Conv_9/WithoutBiases/fq_weights_1/mulpiply_by_scale" type="Multiply" version="opset1">
			<data auto_broadcast="numpy"/>
			<input>
				<port id="0">
					<dim>64</dim>
					<dim>32</dim>
					<dim>3</dim>
					<dim>3</dim>
				</port>
				<port id="1">
					<dim>64</dim>
					<dim>1</dim>
					<dim>1</dim>
					<dim>1</dim>
				</port>
			</input>
			<output>
				<port id="2" precision="FP32">
					<dim>64</dim>
					<dim>32</dim>
					<dim>3</dim>
					<dim>3</dim>
				</port>
			</output>
		</layer>
		<layer id="136" name="Conv_9/WithoutBiases" type="Convolution" version="opset1">
			<data auto_pad="explicit" strides="2,2" dilations="1,1" pads_begin="1,1" pads_end="1,1"/>
			<input>
				<port id="0">
					<dim>1</dim>
					<dim>32</dim>
					<dim>208</dim>
					<dim>208</dim>
				</port>
				<port id="1">
					<dim>64</dim>
					<dim>32</dim>
					<dim>3</dim>
					<dim>3</dim>
				</port>
			</input>
			<output>
				<port id="2" precision="FP32">
					<dim>1</dim>
					<dim>64</dim>
					<dim>104</dim>
					<dim>104</dim>
				</port>
			</output>
		</layer>
		<layer id="137" name="Reshape_35771117624" type="Const" version="opset1">
			<data offset="40188" size="128" shape="1,64,1,1" element_type="f16"/>
			<output>
				<port id="0" precision="FP16">
					<dim>1</dim>
					<dim>64</dim>
					<dim>1</dim>
					<dim>1</dim>
				</port>
			</output>
		</layer>
		<layer id="138" name="Reshape_3577119622/restored_convert" type="Convert" version="opset1">
			<data destination_type="f32"/>
			<rt_info>
				<attribute name="decompression" version="0"/>
			</rt_info>
			<input>
				<port id="0">
					<dim>1</dim>
					<dim>64</dim>
					<dim>1</dim>
					<dim>1</dim>
				</port>
			</input>
			<output>
				<port id="1" precision="FP32">
					<dim>1</dim>
					<dim>64</dim>
					<dim>1</dim>
					<dim>1</dim>
				</port>
			</output>
		</layer>
		<layer id="139" name="Conv_9" type="Add" version="opset1">
			<data auto_broadcast="numpy"/>
			<input>
				<port id="0">
					<dim>1</dim>
					<dim>64</dim>
					<dim>104</dim>
					<dim>104</dim>
				</port>
				<port id="1">
					<dim>1</dim>
					<dim>64</dim>
					<dim>1</dim>
					<dim>1</dim>
				</port>
			</input>
			<output>
				<port id="2" precision="FP32" names="onnx::Sigmoid_202">
					<dim>1</dim>
					<dim>64</dim>
					<dim>104</dim>
					<dim>104</dim>
				</port>
			</output>
		</layer>
		<layer id="140" name="Mul_11" type="Swish" version="opset4">
			<input>
				<port id="0">
					<dim>1</dim>
					<dim>64</dim>
					<dim>104</dim>
					<dim>104</dim>
				</port>
			</input>
			<output>
				<port id="1" precision="FP32" names="input.12">
					<dim>1</dim>
					<dim>64</dim>
					<dim>104</dim>
					<dim>104</dim>
				</port>
			</output>
		</layer>
		<layer id="141" name="Conv_12/WithoutBiases/fq_input_0" type="FakeQuantize" version="opset1">
			<data levels="256" auto_broadcast="numpy"/>
			<input>
				<port id="0">
					<dim>1</dim>
					<dim>64</dim>
					<dim>104</dim>
					<dim>104</dim>
				</port>
				<port id="1">
					<dim>1</dim>
					<dim>1</dim>
					<dim>1</dim>
					<dim>1</dim>
				</port>
				<port id="2">
					<dim>1</dim>
					<dim>1</dim>
					<dim>1</dim>
					<dim>1</dim>
				</port>
				<port id="3">
					<dim>1</dim>
					<dim>1</dim>
					<dim>1</dim>
					<dim>1</dim>
				</port>
				<port id="4">
					<dim>1</dim>
					<dim>1</dim>
					<dim>1</dim>
					<dim>1</dim>
				</port>
			</input>
			<output>
				<port id="5" precision="FP32">
					<dim>1</dim>
					<dim>64</dim>
					<dim>104</dim>
					<dim>104</dim>
				</port>
			</output>
		</layer>
		<layer id="142" name="Conv_15/WithoutBiases/fq_weights_1/scale1316917330" type="Const" version="opset1">
			<data offset="40316" size="128" shape="32,1,1,1" element_type="f32"/>
			<output>
				<port id="0" precision="FP32">
					<dim>32</dim>
					<dim>1</dim>
					<dim>1</dim>
					<dim>1</dim>
				</port>
			</output>
		</layer>
		<layer id="143" name="model.5.conv.weight7159623/restored_convert/quantized1316117486" type="Const" version="opset1">
			<data offset="40444" size="2048" shape="32,64,1,1" element_type="i8"/>
			<output>
				<port id="0" precision="I8">
					<dim>32</dim>
					<dim>64</dim>
					<dim>1</dim>
					<dim>1</dim>
				</port>
			</output>
		</layer>
		<layer id="144" name="model.5.conv.weight7159623/restored_convert/quantized/to_f32" type="Convert" version="opset1">
			<data destination_type="f32"/>
			<input>
				<port id="0">
					<dim>32</dim>
					<dim>64</dim>
					<dim>1</dim>
					<dim>1</dim>
				</port>
			</input>
			<output>
				<port id="1" precision="FP32">
					<dim>32</dim>
					<dim>64</dim>
					<dim>1</dim>
					<dim>1</dim>
				</port>
			</output>
		</layer>
		<layer id="145" name="Conv_15/WithoutBiases/fq_weights_1/mulpiply_by_scale" type="Multiply" version="opset1">
			<data auto_broadcast="numpy"/>
			<input>
				<port id="0">
					<dim>32</dim>
					<dim>64</dim>
					<dim>1</dim>
					<dim>1</dim>
				</port>
				<port id="1">
					<dim>32</dim>
					<dim>1</dim>
					<dim>1</dim>
					<dim>1</dim>
				</port>
			</input>
			<output>
				<port id="2" precision="FP32">
					<dim>32</dim>
					<dim>64</dim>
					<dim>1</dim>
					<dim>1</dim>
				</port>
			</output>
		</layer>
		<layer id="146" name="Conv_15/WithoutBiases" type="Convolution" version="opset1">
			<data auto_pad="explicit" strides="1,1" dilations="1,1" pads_begin="0,0" pads_end="0,0"/>
			<input>
				<port id="0">
					<dim>1</dim>
					<dim>64</dim>
					<dim>104</dim>
					<dim>104</dim>
				</port>
				<port id="1">
					<dim>32</dim>
					<dim>64</dim>
					<dim>1</dim>
					<dim>1</dim>
				</port>
			</input>
			<output>
				<port id="2" precision="FP32">
					<dim>1</dim>
					<dim>32</dim>
					<dim>104</dim>
					<dim>104</dim>
				</port>
			</output>
		</layer>
		<layer id="147" name="Reshape_45771818122" type="Const" version="opset1">
			<data offset="42492" size="64" shape="1,32,1,1" element_type="f16"/>
			<output>
				<port id="0" precision="FP16">
					<dim>1</dim>
					<dim>32</dim>
					<dim>1</dim>
					<dim>1</dim>
				</port>
			</output>
		</layer>
		<layer id="148" name="Reshape_4577189624/restored_convert" type="Convert" version="opset1">
			<data destination_type="f32"/>
			<rt_info>
				<attribute name="decompression" version="0"/>
			</rt_info>
			<input>
				<port id="0">
					<dim>1</dim>
					<dim>32</dim>
					<dim>1</dim>
					<dim>1</dim>
				</port>
			</input>
			<output>
				<port id="1" precision="FP32">
					<dim>1</dim>
					<dim>32</dim>
					<dim>1</dim>
					<dim>1</dim>
				</port>
			</output>
		</layer>
		<layer id="149" name="Conv_15" type="Add" version="opset1">
			<data auto_broadcast="numpy"/>
			<input>
				<port id="0">
					<dim>1</dim>
					<dim>32</dim>
					<dim>104</dim>
					<dim>104</dim>
				</port>
				<port id="1">
					<dim>1</dim>
					<dim>32</dim>
					<dim>1</dim>
					<dim>1</dim>
				</port>
			</input>
			<output>
				<port id="2" precision="FP32" names="onnx::Sigmoid_208">
					<dim>1</dim>
					<dim>32</dim>
					<dim>104</dim>
					<dim>104</dim>
				</port>
			</output>
		</layer>
		<layer id="150" name="Mul_17" type="Swish" version="opset4">
			<input>
				<port id="0">
					<dim>1</dim>
					<dim>32</dim>
					<dim>104</dim>
					<dim>104</dim>
				</port>
			</input>
			<output>
				<port id="1" precision="FP32" names="input.16">
					<dim>1</dim>
					<dim>32</dim>
					<dim>104</dim>
					<dim>104</dim>
				</port>
			</output>
		</layer>
		<layer id="151" name="Concat_30/fq_input_2" type="FakeQuantize" version="opset1">
			<data levels="256" auto_broadcast="numpy"/>
			<input>
				<port id="0">
					<dim>1</dim>
					<dim>32</dim>
					<dim>104</dim>
					<dim>104</dim>
				</port>
				<port id="1">
					<dim>1</dim>
					<dim>1</dim>
					<dim>1</dim>
					<dim>1</dim>
				</port>
				<port id="2">
					<dim>1</dim>
					<dim>1</dim>
					<dim>1</dim>
					<dim>1</dim>
				</port>
				<port id="3">
					<dim>1</dim>
					<dim>1</dim>
					<dim>1</dim>
					<dim>1</dim>
				</port>
				<port id="4">
					<dim>1</dim>
					<dim>1</dim>
					<dim>1</dim>
					<dim>1</dim>
				</port>
			</input>
			<output>
				<port id="5" precision="FP32">
					<dim>1</dim>
					<dim>32</dim>
					<dim>104</dim>
					<dim>104</dim>
				</port>
			</output>
		</layer>
		<layer id="152" name="Conv_18/WithoutBiases/fq_weights_1/scale1349917591" type="Const" version="opset1">
			<data offset="42556" size="160" shape="40,1,1,1" element_type="f32"/>
			<output>
				<port id="0" precision="FP32">
					<dim>40</dim>
					<dim>1</dim>
					<dim>1</dim>
					<dim>1</dim>
				</port>
			</output>
		</layer>
		<layer id="153" name="model.6.conv.weight7229625/restored_convert/quantized1349118716" type="Const" version="opset1">
			<data offset="42716" size="11520" shape="40,32,3,3" element_type="i8"/>
			<output>
				<port id="0" precision="I8">
					<dim>40</dim>
					<dim>32</dim>
					<dim>3</dim>
					<dim>3</dim>
				</port>
			</output>
		</layer>
		<layer id="154" name="model.6.conv.weight7229625/restored_convert/quantized/to_f32" type="Convert" version="opset1">
			<data destination_type="f32"/>
			<input>
				<port id="0">
					<dim>40</dim>
					<dim>32</dim>
					<dim>3</dim>
					<dim>3</dim>
				</port>
			</input>
			<output>
				<port id="1" precision="FP32">
					<dim>40</dim>
					<dim>32</dim>
					<dim>3</dim>
					<dim>3</dim>
				</port>
			</output>
		</layer>
		<layer id="155" name="Conv_18/WithoutBiases/fq_weights_1/mulpiply_by_scale" type="Multiply" version="opset1">
			<data auto_broadcast="numpy"/>
			<input>
				<port id="0">
					<dim>40</dim>
					<dim>32</dim>
					<dim>3</dim>
					<dim>3</dim>
				</port>
				<port id="1">
					<dim>40</dim>
					<dim>1</dim>
					<dim>1</dim>
					<dim>1</dim>
				</port>
			</input>
			<output>
				<port id="2" precision="FP32">
					<dim>40</dim>
					<dim>32</dim>
					<dim>3</dim>
					<dim>3</dim>
				</port>
			</output>
		</layer>
		<layer id="156" name="Conv_18/WithoutBiases" type="Convolution" version="opset1">
			<data auto_pad="explicit" strides="1,1" dilations="1,1" pads_begin="1,1" pads_end="1,1"/>
			<input>
				<port id="0">
					<dim>1</dim>
					<dim>32</dim>
					<dim>104</dim>
					<dim>104</dim>
				</port>
				<port id="1">
					<dim>40</dim>
					<dim>32</dim>
					<dim>3</dim>
					<dim>3</dim>
				</port>
			</input>
			<output>
				<port id="2" precision="FP32">
					<dim>1</dim>
					<dim>40</dim>
					<dim>104</dim>
					<dim>104</dim>
				</port>
			</output>
		</layer>
		<layer id="157" name="Reshape_50772518506" type="Const" version="opset1">
			<data offset="54236" size="80" shape="1,40,1,1" element_type="f16"/>
			<output>
				<port id="0" precision="FP16">
					<dim>1</dim>
					<dim>40</dim>
					<dim>1</dim>
					<dim>1</dim>
				</port>
			</output>
		</layer>
		<layer id="158" name="Reshape_5077259626/restored_convert" type="Convert" version="opset1">
			<data destination_type="f32"/>
			<rt_info>
				<attribute name="decompression" version="0"/>
			</rt_info>
			<input>
				<port id="0">
					<dim>1</dim>
					<dim>40</dim>
					<dim>1</dim>
					<dim>1</dim>
				</port>
			</input>
			<output>
				<port id="1" precision="FP32">
					<dim>1</dim>
					<dim>40</dim>
					<dim>1</dim>
					<dim>1</dim>
				</port>
			</output>
		</layer>
		<layer id="159" name="Conv_18" type="Add" version="opset1">
			<data auto_broadcast="numpy"/>
			<input>
				<port id="0">
					<dim>1</dim>
					<dim>40</dim>
					<dim>104</dim>
					<dim>104</dim>
				</port>
				<port id="1">
					<dim>1</dim>
					<dim>40</dim>
					<dim>1</dim>
					<dim>1</dim>
				</port>
			</input>
			<output>
				<port id="2" precision="FP32" names="onnx::Sigmoid_211">
					<dim>1</dim>
					<dim>40</dim>
					<dim>104</dim>
					<dim>104</dim>
				</port>
			</output>
		</layer>
		<layer id="160" name="Mul_20" type="Swish" version="opset4">
			<input>
				<port id="0">
					<dim>1</dim>
					<dim>40</dim>
					<dim>104</dim>
					<dim>104</dim>
				</port>
			</input>
			<output>
				<port id="1" precision="FP32" names="input.20">
					<dim>1</dim>
					<dim>40</dim>
					<dim>104</dim>
					<dim>104</dim>
				</port>
			</output>
		</layer>
		<layer id="161" name="Conv_21/WithoutBiases/fq_input_0" type="FakeQuantize" version="opset1">
			<data levels="256" auto_broadcast="numpy"/>
			<input>
				<port id="0">
					<dim>1</dim>
					<dim>40</dim>
					<dim>104</dim>
					<dim>104</dim>
				</port>
				<port id="1">
					<dim>1</dim>
					<dim>1</dim>
					<dim>1</dim>
					<dim>1</dim>
				</port>
				<port id="2">
					<dim>1</dim>
					<dim>1</dim>
					<dim>1</dim>
					<dim>1</dim>
				</port>
				<port id="3">
					<dim>1</dim>
					<dim>1</dim>
					<dim>1</dim>
					<dim>1</dim>
				</port>
				<port id="4">
					<dim>1</dim>
					<dim>1</dim>
					<dim>1</dim>
					<dim>1</dim>
				</port>
			</input>
			<output>
				<port id="5" precision="FP32">
					<dim>1</dim>
					<dim>40</dim>
					<dim>104</dim>
					<dim>104</dim>
				</port>
			</output>
		</layer>
		<layer id="162" name="Conv_21/WithoutBiases/fq_weights_1/scale1166918842" type="Const" version="opset1">
			<data offset="54316" size="160" shape="40,1,1,1" element_type="f32"/>
			<output>
				<port id="0" precision="FP32">
					<dim>40</dim>
					<dim>1</dim>
					<dim>1</dim>
					<dim>1</dim>
				</port>
			</output>
		</layer>
		<layer id="163" name="model.7.conv.weight7299627/restored_convert/quantized1166117156" type="Const" version="opset1">
			<data offset="54476" size="14400" shape="40,40,3,3" element_type="i8"/>
			<output>
				<port id="0" precision="I8">
					<dim>40</dim>
					<dim>40</dim>
					<dim>3</dim>
					<dim>3</dim>
				</port>
			</output>
		</layer>
		<layer id="164" name="model.7.conv.weight7299627/restored_convert/quantized/to_f32" type="Convert" version="opset1">
			<data destination_type="f32"/>
			<input>
				<port id="0">
					<dim>40</dim>
					<dim>40</dim>
					<dim>3</dim>
					<dim>3</dim>
				</port>
			</input>
			<output>
				<port id="1" precision="FP32">
					<dim>40</dim>
					<dim>40</dim>
					<dim>3</dim>
					<dim>3</dim>
				</port>
			</output>
		</layer>
		<layer id="165" name="Conv_21/WithoutBiases/fq_weights_1/mulpiply_by_scale" type="Multiply" version="opset1">
			<data auto_broadcast="numpy"/>
			<input>
				<port id="0">
					<dim>40</dim>
					<dim>40</dim>
					<dim>3</dim>
					<dim>3</dim>
				</port>
				<port id="1">
					<dim>40</dim>
					<dim>1</dim>
					<dim>1</dim>
					<dim>1</dim>
				</port>
			</input>
			<output>
				<port id="2" precision="FP32">
					<dim>40</dim>
					<dim>40</dim>
					<dim>3</dim>
					<dim>3</dim>
				</port>
			</output>
		</layer>
		<layer id="166" name="Conv_21/WithoutBiases" type="Convolution" version="opset1">
			<data auto_pad="explicit" strides="1,1" dilations="1,1" pads_begin="1,1" pads_end="1,1"/>
			<input>
				<port id="0">
					<dim>1</dim>
					<dim>40</dim>
					<dim>104</dim>
					<dim>104</dim>
				</port>
				<port id="1">
					<dim>40</dim>
					<dim>40</dim>
					<dim>3</dim>
					<dim>3</dim>
				</port>
			</input>
			<output>
				<port id="2" precision="FP32">
					<dim>1</dim>
					<dim>40</dim>
					<dim>104</dim>
					<dim>104</dim>
				</port>
			</output>
		</layer>
		<layer id="167" name="Reshape_55773217375" type="Const" version="opset1">
			<data offset="68876" size="80" shape="1,40,1,1" element_type="f16"/>
			<output>
				<port id="0" precision="FP16">
					<dim>1</dim>
					<dim>40</dim>
					<dim>1</dim>
					<dim>1</dim>
				</port>
			</output>
		</layer>
		<layer id="168" name="Reshape_5577329628/restored_convert" type="Convert" version="opset1">
			<data destination_type="f32"/>
			<rt_info>
				<attribute name="decompression" version="0"/>
			</rt_info>
			<input>
				<port id="0">
					<dim>1</dim>
					<dim>40</dim>
					<dim>1</dim>
					<dim>1</dim>
				</port>
			</input>
			<output>
				<port id="1" precision="FP32">
					<dim>1</dim>
					<dim>40</dim>
					<dim>1</dim>
					<dim>1</dim>
				</port>
			</output>
		</layer>
		<layer id="169" name="Conv_21" type="Add" version="opset1">
			<data auto_broadcast="numpy"/>
			<input>
				<port id="0">
					<dim>1</dim>
					<dim>40</dim>
					<dim>104</dim>
					<dim>104</dim>
				</port>
				<port id="1">
					<dim>1</dim>
					<dim>40</dim>
					<dim>1</dim>
					<dim>1</dim>
				</port>
			</input>
			<output>
				<port id="2" precision="FP32" names="onnx::Sigmoid_214">
					<dim>1</dim>
					<dim>40</dim>
					<dim>104</dim>
					<dim>104</dim>
				</port>
			</output>
		</layer>
		<layer id="170" name="Mul_23" type="Swish" version="opset4">
			<input>
				<port id="0">
					<dim>1</dim>
					<dim>40</dim>
					<dim>104</dim>
					<dim>104</dim>
				</port>
			</input>
			<output>
				<port id="1" precision="FP32" names="input.24">
					<dim>1</dim>
					<dim>40</dim>
					<dim>104</dim>
					<dim>104</dim>
				</port>
			</output>
		</layer>
		<layer id="171" name="Concat_30/fq_input_1" type="FakeQuantize" version="opset1">
			<data levels="256" auto_broadcast="numpy"/>
			<input>
				<port id="0">
					<dim>1</dim>
					<dim>40</dim>
					<dim>104</dim>
					<dim>104</dim>
				</port>
				<port id="1">
					<dim>1</dim>
					<dim>1</dim>
					<dim>1</dim>
					<dim>1</dim>
				</port>
				<port id="2">
					<dim>1</dim>
					<dim>1</dim>
					<dim>1</dim>
					<dim>1</dim>
				</port>
				<port id="3">
					<dim>1</dim>
					<dim>1</dim>
					<dim>1</dim>
					<dim>1</dim>
				</port>
				<port id="4">
					<dim>1</dim>
					<dim>1</dim>
					<dim>1</dim>
					<dim>1</dim>
				</port>
			</input>
			<output>
				<port id="5" precision="FP32">
					<dim>1</dim>
					<dim>40</dim>
					<dim>104</dim>
					<dim>104</dim>
				</port>
			</output>
		</layer>
		<layer id="172" name="Conv_24/WithoutBiases/fq_weights_1/scale1097917084" type="Const" version="opset1">
			<data offset="68956" size="160" shape="40,1,1,1" element_type="f32"/>
			<output>
				<port id="0" precision="FP32">
					<dim>40</dim>
					<dim>1</dim>
					<dim>1</dim>
					<dim>1</dim>
				</port>
			</output>
		</layer>
		<layer id="173" name="model.8.conv.weight7369629/restored_convert/quantized1097118386" type="Const" version="opset1">
			<data offset="69116" size="14400" shape="40,40,3,3" element_type="i8"/>
			<output>
				<port id="0" precision="I8">
					<dim>40</dim>
					<dim>40</dim>
					<dim>3</dim>
					<dim>3</dim>
				</port>
			</output>
		</layer>
		<layer id="174" name="model.8.conv.weight7369629/restored_convert/quantized/to_f32" type="Convert" version="opset1">
			<data destination_type="f32"/>
			<input>
				<port id="0">
					<dim>40</dim>
					<dim>40</dim>
					<dim>3</dim>
					<dim>3</dim>
				</port>
			</input>
			<output>
				<port id="1" precision="FP32">
					<dim>40</dim>
					<dim>40</dim>
					<dim>3</dim>
					<dim>3</dim>
				</port>
			</output>
		</layer>
		<layer id="175" name="Conv_24/WithoutBiases/fq_weights_1/mulpiply_by_scale" type="Multiply" version="opset1">
			<data auto_broadcast="numpy"/>
			<input>
				<port id="0">
					<dim>40</dim>
					<dim>40</dim>
					<dim>3</dim>
					<dim>3</dim>
				</port>
				<port id="1">
					<dim>40</dim>
					<dim>1</dim>
					<dim>1</dim>
					<dim>1</dim>
				</port>
			</input>
			<output>
				<port id="2" precision="FP32">
					<dim>40</dim>
					<dim>40</dim>
					<dim>3</dim>
					<dim>3</dim>
				</port>
			</output>
		</layer>
		<layer id="176" name="Conv_24/WithoutBiases" type="Convolution" version="opset1">
			<data auto_pad="explicit" strides="1,1" dilations="1,1" pads_begin="1,1" pads_end="1,1"/>
			<input>
				<port id="0">
					<dim>1</dim>
					<dim>40</dim>
					<dim>104</dim>
					<dim>104</dim>
				</port>
				<port id="1">
					<dim>40</dim>
					<dim>40</dim>
					<dim>3</dim>
					<dim>3</dim>
				</port>
			</input>
			<output>
				<port id="2" precision="FP32">
					<dim>1</dim>
					<dim>40</dim>
					<dim>104</dim>
					<dim>104</dim>
				</port>
			</output>
		</layer>
		<layer id="177" name="Reshape_60773918647" type="Const" version="opset1">
			<data offset="83516" size="80" shape="1,40,1,1" element_type="f16"/>
			<output>
				<port id="0" precision="FP16">
					<dim>1</dim>
					<dim>40</dim>
					<dim>1</dim>
					<dim>1</dim>
				</port>
			</output>
		</layer>
		<layer id="178" name="Reshape_6077399630/restored_convert" type="Convert" version="opset1">
			<data destination_type="f32"/>
			<rt_info>
				<attribute name="decompression" version="0"/>
			</rt_info>
			<input>
				<port id="0">
					<dim>1</dim>
					<dim>40</dim>
					<dim>1</dim>
					<dim>1</dim>
				</port>
			</input>
			<output>
				<port id="1" precision="FP32">
					<dim>1</dim>
					<dim>40</dim>
					<dim>1</dim>
					<dim>1</dim>
				</port>
			</output>
		</layer>
		<layer id="179" name="Conv_24" type="Add" version="opset1">
			<data auto_broadcast="numpy"/>
			<input>
				<port id="0">
					<dim>1</dim>
					<dim>40</dim>
					<dim>104</dim>
					<dim>104</dim>
				</port>
				<port id="1">
					<dim>1</dim>
					<dim>40</dim>
					<dim>1</dim>
					<dim>1</dim>
				</port>
			</input>
			<output>
				<port id="2" precision="FP32" names="onnx::Sigmoid_217">
					<dim>1</dim>
					<dim>40</dim>
					<dim>104</dim>
					<dim>104</dim>
				</port>
			</output>
		</layer>
		<layer id="180" name="Mul_26" type="Swish" version="opset4">
			<input>
				<port id="0">
					<dim>1</dim>
					<dim>40</dim>
					<dim>104</dim>
					<dim>104</dim>
				</port>
			</input>
			<output>
				<port id="1" precision="FP32" names="input.28">
					<dim>1</dim>
					<dim>40</dim>
					<dim>104</dim>
					<dim>104</dim>
				</port>
			</output>
		</layer>
		<layer id="181" name="Conv_27/WithoutBiases/fq_input_0" type="FakeQuantize" version="opset1">
			<data levels="256" auto_broadcast="numpy"/>
			<input>
				<port id="0">
					<dim>1</dim>
					<dim>40</dim>
					<dim>104</dim>
					<dim>104</dim>
				</port>
				<port id="1">
					<dim>1</dim>
					<dim>1</dim>
					<dim>1</dim>
					<dim>1</dim>
				</port>
				<port id="2">
					<dim>1</dim>
					<dim>1</dim>
					<dim>1</dim>
					<dim>1</dim>
				</port>
				<port id="3">
					<dim>1</dim>
					<dim>1</dim>
					<dim>1</dim>
					<dim>1</dim>
				</port>
				<port id="4">
					<dim>1</dim>
					<dim>1</dim>
					<dim>1</dim>
					<dim>1</dim>
				</port>
			</input>
			<output>
				<port id="5" precision="FP32">
					<dim>1</dim>
					<dim>40</dim>
					<dim>104</dim>
					<dim>104</dim>
				</port>
			</output>
		</layer>
		<layer id="182" name="Conv_27/WithoutBiases/fq_weights_1/scale1235917447" type="Const" version="opset1">
			<data offset="83596" size="128" shape="32,1,1,1" element_type="f32"/>
			<output>
				<port id="0" precision="FP32">
					<dim>32</dim>
					<dim>1</dim>
					<dim>1</dim>
					<dim>1</dim>
				</port>
			</output>
		</layer>
		<layer id="183" name="model.9.conv.weight7439631/restored_convert/quantized1235116994" type="Const" version="opset1">
			<data offset="83724" size="11520" shape="32,40,3,3" element_type="i8"/>
			<output>
				<port id="0" precision="I8">
					<dim>32</dim>
					<dim>40</dim>
					<dim>3</dim>
					<dim>3</dim>
				</port>
			</output>
		</layer>
		<layer id="184" name="model.9.conv.weight7439631/restored_convert/quantized/to_f32" type="Convert" version="opset1">
			<data destination_type="f32"/>
			<input>
				<port id="0">
					<dim>32</dim>
					<dim>40</dim>
					<dim>3</dim>
					<dim>3</dim>
				</port>
			</input>
			<output>
				<port id="1" precision="FP32">
					<dim>32</dim>
					<dim>40</dim>
					<dim>3</dim>
					<dim>3</dim>
				</port>
			</output>
		</layer>
		<layer id="185" name="Conv_27/WithoutBiases/fq_weights_1/mulpiply_by_scale" type="Multiply" version="opset1">
			<data auto_broadcast="numpy"/>
			<input>
				<port id="0">
					<dim>32</dim>
					<dim>40</dim>
					<dim>3</dim>
					<dim>3</dim>
				</port>
				<port id="1">
					<dim>32</dim>
					<dim>1</dim>
					<dim>1</dim>
					<dim>1</dim>
				</port>
			</input>
			<output>
				<port id="2" precision="FP32">
					<dim>32</dim>
					<dim>40</dim>
					<dim>3</dim>
					<dim>3</dim>
				</port>
			</output>
		</layer>
		<layer id="186" name="Conv_27/WithoutBiases" type="Convolution" version="opset1">
			<data auto_pad="explicit" strides="1,1" dilations="1,1" pads_begin="1,1" pads_end="1,1"/>
			<input>
				<port id="0">
					<dim>1</dim>
					<dim>40</dim>
					<dim>104</dim>
					<dim>104</dim>
				</port>
				<port id="1">
					<dim>32</dim>
					<dim>40</dim>
					<dim>3</dim>
					<dim>3</dim>
				</port>
			</input>
			<output>
				<port id="2" precision="FP32">
					<dim>1</dim>
					<dim>32</dim>
					<dim>104</dim>
					<dim>104</dim>
				</port>
			</output>
		</layer>
		<layer id="187" name="Reshape_65774618686" type="Const" version="opset1">
			<data offset="95244" size="64" shape="1,32,1,1" element_type="f16"/>
			<output>
				<port id="0" precision="FP16">
					<dim>1</dim>
					<dim>32</dim>
					<dim>1</dim>
					<dim>1</dim>
				</port>
			</output>
		</layer>
		<layer id="188" name="Reshape_6577469632/restored_convert" type="Convert" version="opset1">
			<data destination_type="f32"/>
			<rt_info>
				<attribute name="decompression" version="0"/>
			</rt_info>
			<input>
				<port id="0">
					<dim>1</dim>
					<dim>32</dim>
					<dim>1</dim>
					<dim>1</dim>
				</port>
			</input>
			<output>
				<port id="1" precision="FP32">
					<dim>1</dim>
					<dim>32</dim>
					<dim>1</dim>
					<dim>1</dim>
				</port>
			</output>
		</layer>
		<layer id="189" name="Conv_27" type="Add" version="opset1">
			<data auto_broadcast="numpy"/>
			<input>
				<port id="0">
					<dim>1</dim>
					<dim>32</dim>
					<dim>104</dim>
					<dim>104</dim>
				</port>
				<port id="1">
					<dim>1</dim>
					<dim>32</dim>
					<dim>1</dim>
					<dim>1</dim>
				</port>
			</input>
			<output>
				<port id="2" precision="FP32" names="onnx::Sigmoid_220">
					<dim>1</dim>
					<dim>32</dim>
					<dim>104</dim>
					<dim>104</dim>
				</port>
			</output>
		</layer>
		<layer id="190" name="Mul_29" type="Swish" version="opset4">
			<input>
				<port id="0">
					<dim>1</dim>
					<dim>32</dim>
					<dim>104</dim>
					<dim>104</dim>
				</port>
			</input>
			<output>
				<port id="1" precision="FP32" names="onnx::Concat_222">
					<dim>1</dim>
					<dim>32</dim>
					<dim>104</dim>
					<dim>104</dim>
				</port>
			</output>
		</layer>
		<layer id="191" name="Concat_30/fq_input_0" type="FakeQuantize" version="opset1">
			<data levels="256" auto_broadcast="numpy"/>
			<input>
				<port id="0">
					<dim>1</dim>
					<dim>32</dim>
					<dim>104</dim>
					<dim>104</dim>
				</port>
				<port id="1">
					<dim>1</dim>
					<dim>1</dim>
					<dim>1</dim>
					<dim>1</dim>
				</port>
				<port id="2">
					<dim>1</dim>
					<dim>1</dim>
					<dim>1</dim>
					<dim>1</dim>
				</port>
				<port id="3">
					<dim>1</dim>
					<dim>1</dim>
					<dim>1</dim>
					<dim>1</dim>
				</port>
				<port id="4">
					<dim>1</dim>
					<dim>1</dim>
					<dim>1</dim>
					<dim>1</dim>
				</port>
			</input>
			<output>
				<port id="5" precision="FP32">
					<dim>1</dim>
					<dim>32</dim>
					<dim>104</dim>
					<dim>104</dim>
				</port>
			</output>
		</layer>
		<layer id="192" name="5582558617831" type="Const" version="opset1">
			<data offset="68" size="4" shape="1,1,1,1" element_type="f32"/>
			<output>
				<port id="0" precision="FP32">
					<dim>1</dim>
					<dim>1</dim>
					<dim>1</dim>
					<dim>1</dim>
				</port>
			</output>
		</layer>
		<layer id="193" name="5583558718353" type="Const" version="opset1">
			<data offset="72" size="4" shape="1,1,1,1" element_type="f32"/>
			<output>
				<port id="0" precision="FP32">
					<dim>1</dim>
					<dim>1</dim>
					<dim>1</dim>
					<dim>1</dim>
				</port>
			</output>
		</layer>
		<layer id="194" name="5584558818548" type="Const" version="opset1">
			<data offset="68" size="4" shape="1,1,1,1" element_type="f32"/>
			<output>
				<port id="0" precision="FP32">
					<dim>1</dim>
					<dim>1</dim>
					<dim>1</dim>
					<dim>1</dim>
				</port>
			</output>
		</layer>
		<layer id="195" name="5585558917954" type="Const" version="opset1">
			<data offset="72" size="4" shape="1,1,1,1" element_type="f32"/>
			<output>
				<port id="0" precision="FP32">
					<dim>1</dim>
					<dim>1</dim>
					<dim>1</dim>
					<dim>1</dim>
				</port>
			</output>
		</layer>
		<layer id="196" name="Conv_12/WithoutBiases/fq_weights_1/scale1106917396" type="Const" version="opset1">
			<data offset="95308" size="128" shape="32,1,1,1" element_type="f32"/>
			<output>
				<port id="0" precision="FP32">
					<dim>32</dim>
					<dim>1</dim>
					<dim>1</dim>
					<dim>1</dim>
				</port>
			</output>
		</layer>
		<layer id="197" name="model.4.conv.weight7509633/restored_convert/quantized1106118398" type="Const" version="opset1">
			<data offset="95436" size="2048" shape="32,64,1,1" element_type="i8"/>
			<output>
				<port id="0" precision="I8">
					<dim>32</dim>
					<dim>64</dim>
					<dim>1</dim>
					<dim>1</dim>
				</port>
			</output>
		</layer>
		<layer id="198" name="model.4.conv.weight7509633/restored_convert/quantized/to_f32" type="Convert" version="opset1">
			<data destination_type="f32"/>
			<input>
				<port id="0">
					<dim>32</dim>
					<dim>64</dim>
					<dim>1</dim>
					<dim>1</dim>
				</port>
			</input>
			<output>
				<port id="1" precision="FP32">
					<dim>32</dim>
					<dim>64</dim>
					<dim>1</dim>
					<dim>1</dim>
				</port>
			</output>
		</layer>
		<layer id="199" name="Conv_12/WithoutBiases/fq_weights_1/mulpiply_by_scale" type="Multiply" version="opset1">
			<data auto_broadcast="numpy"/>
			<input>
				<port id="0">
					<dim>32</dim>
					<dim>64</dim>
					<dim>1</dim>
					<dim>1</dim>
				</port>
				<port id="1">
					<dim>32</dim>
					<dim>1</dim>
					<dim>1</dim>
					<dim>1</dim>
				</port>
			</input>
			<output>
				<port id="2" precision="FP32">
					<dim>32</dim>
					<dim>64</dim>
					<dim>1</dim>
					<dim>1</dim>
				</port>
			</output>
		</layer>
		<layer id="200" name="Conv_12/WithoutBiases" type="Convolution" version="opset1">
			<data auto_pad="explicit" strides="1,1" dilations="1,1" pads_begin="0,0" pads_end="0,0"/>
			<input>
				<port id="0">
					<dim>1</dim>
					<dim>64</dim>
					<dim>104</dim>
					<dim>104</dim>
				</port>
				<port id="1">
					<dim>32</dim>
					<dim>64</dim>
					<dim>1</dim>
					<dim>1</dim>
				</port>
			</input>
			<output>
				<port id="2" precision="FP32">
					<dim>1</dim>
					<dim>32</dim>
					<dim>104</dim>
					<dim>104</dim>
				</port>
			</output>
		</layer>
		<layer id="201" name="Reshape_40775317063" type="Const" version="opset1">
			<data offset="97484" size="64" shape="1,32,1,1" element_type="f16"/>
			<output>
				<port id="0" precision="FP16">
					<dim>1</dim>
					<dim>32</dim>
					<dim>1</dim>
					<dim>1</dim>
				</port>
			</output>
		</layer>
		<layer id="202" name="Reshape_4077539634/restored_convert" type="Convert" version="opset1">
			<data destination_type="f32"/>
			<rt_info>
				<attribute name="decompression" version="0"/>
			</rt_info>
			<input>
				<port id="0">
					<dim>1</dim>
					<dim>32</dim>
					<dim>1</dim>
					<dim>1</dim>
				</port>
			</input>
			<output>
				<port id="1" precision="FP32">
					<dim>1</dim>
					<dim>32</dim>
					<dim>1</dim>
					<dim>1</dim>
				</port>
			</output>
		</layer>
		<layer id="203" name="Conv_12" type="Add" version="opset1">
			<data auto_broadcast="numpy"/>
			<input>
				<port id="0">
					<dim>1</dim>
					<dim>32</dim>
					<dim>104</dim>
					<dim>104</dim>
				</port>
				<port id="1">
					<dim>1</dim>
					<dim>32</dim>
					<dim>1</dim>
					<dim>1</dim>
				</port>
			</input>
			<output>
				<port id="2" precision="FP32" names="onnx::Sigmoid_205">
					<dim>1</dim>
					<dim>32</dim>
					<dim>104</dim>
					<dim>104</dim>
				</port>
			</output>
		</layer>
		<layer id="204" name="Mul_14" type="Swish" version="opset4">
			<input>
				<port id="0">
					<dim>1</dim>
					<dim>32</dim>
					<dim>104</dim>
					<dim>104</dim>
				</port>
			</input>
			<output>
				<port id="1" precision="FP32" names="onnx::Concat_207">
					<dim>1</dim>
					<dim>32</dim>
					<dim>104</dim>
					<dim>104</dim>
				</port>
			</output>
		</layer>
		<layer id="205" name="Concat_30/fq_input_3" type="FakeQuantize" version="opset1">
			<data levels="256" auto_broadcast="numpy"/>
			<input>
				<port id="0">
					<dim>1</dim>
					<dim>32</dim>
					<dim>104</dim>
					<dim>104</dim>
				</port>
				<port id="1">
					<dim>1</dim>
					<dim>1</dim>
					<dim>1</dim>
					<dim>1</dim>
				</port>
				<port id="2">
					<dim>1</dim>
					<dim>1</dim>
					<dim>1</dim>
					<dim>1</dim>
				</port>
				<port id="3">
					<dim>1</dim>
					<dim>1</dim>
					<dim>1</dim>
					<dim>1</dim>
				</port>
				<port id="4">
					<dim>1</dim>
					<dim>1</dim>
					<dim>1</dim>
					<dim>1</dim>
				</port>
			</input>
			<output>
				<port id="5" precision="FP32">
					<dim>1</dim>
					<dim>32</dim>
					<dim>104</dim>
					<dim>104</dim>
				</port>
			</output>
		</layer>
		<layer id="206" name="Concat_30" type="Concat" version="opset1">
			<data axis="1"/>
			<input>
				<port id="0">
					<dim>1</dim>
					<dim>32</dim>
					<dim>104</dim>
					<dim>104</dim>
				</port>
				<port id="1">
					<dim>1</dim>
					<dim>40</dim>
					<dim>104</dim>
					<dim>104</dim>
				</port>
				<port id="2">
					<dim>1</dim>
					<dim>32</dim>
					<dim>104</dim>
					<dim>104</dim>
				</port>
				<port id="3">
					<dim>1</dim>
					<dim>32</dim>
					<dim>104</dim>
					<dim>104</dim>
				</port>
			</input>
			<output>
				<port id="4" precision="FP32" names="input.32">
					<dim>1</dim>
					<dim>136</dim>
					<dim>104</dim>
					<dim>104</dim>
				</port>
			</output>
		</layer>
		<layer id="207" name="Conv_31/WithoutBiases/fq_weights_1/scale1355918719" type="Const" version="opset1">
			<data offset="97548" size="480" shape="120,1,1,1" element_type="f32"/>
			<output>
				<port id="0" precision="FP32">
					<dim>120</dim>
					<dim>1</dim>
					<dim>1</dim>
					<dim>1</dim>
				</port>
			</output>
		</layer>
		<layer id="208" name="model.11.conv.weight7589635/restored_convert/quantized1355117243" type="Const" version="opset1">
			<data offset="98028" size="16320" shape="120,136,1,1" element_type="i8"/>
			<output>
				<port id="0" precision="I8">
					<dim>120</dim>
					<dim>136</dim>
					<dim>1</dim>
					<dim>1</dim>
				</port>
			</output>
		</layer>
		<layer id="209" name="model.11.conv.weight7589635/restored_convert/quantized/to_f32" type="Convert" version="opset1">
			<data destination_type="f32"/>
			<input>
				<port id="0">
					<dim>120</dim>
					<dim>136</dim>
					<dim>1</dim>
					<dim>1</dim>
				</port>
			</input>
			<output>
				<port id="1" precision="FP32">
					<dim>120</dim>
					<dim>136</dim>
					<dim>1</dim>
					<dim>1</dim>
				</port>
			</output>
		</layer>
		<layer id="210" name="Conv_31/WithoutBiases/fq_weights_1/mulpiply_by_scale" type="Multiply" version="opset1">
			<data auto_broadcast="numpy"/>
			<input>
				<port id="0">
					<dim>120</dim>
					<dim>136</dim>
					<dim>1</dim>
					<dim>1</dim>
				</port>
				<port id="1">
					<dim>120</dim>
					<dim>1</dim>
					<dim>1</dim>
					<dim>1</dim>
				</port>
			</input>
			<output>
				<port id="2" precision="FP32">
					<dim>120</dim>
					<dim>136</dim>
					<dim>1</dim>
					<dim>1</dim>
				</port>
			</output>
		</layer>
		<layer id="211" name="Conv_31/WithoutBiases" type="Convolution" version="opset1">
			<data auto_pad="explicit" strides="1,1" dilations="1,1" pads_begin="0,0" pads_end="0,0"/>
			<input>
				<port id="0">
					<dim>1</dim>
					<dim>136</dim>
					<dim>104</dim>
					<dim>104</dim>
				</port>
				<port id="1">
					<dim>120</dim>
					<dim>136</dim>
					<dim>1</dim>
					<dim>1</dim>
				</port>
			</input>
			<output>
				<port id="2" precision="FP32">
					<dim>1</dim>
					<dim>120</dim>
					<dim>104</dim>
					<dim>104</dim>
				</port>
			</output>
		</layer>
		<layer id="212" name="Reshape_70876117573" type="Const" version="opset1">
			<data offset="114348" size="240" shape="1,120,1,1" element_type="f16"/>
			<output>
				<port id="0" precision="FP16">
					<dim>1</dim>
					<dim>120</dim>
					<dim>1</dim>
					<dim>1</dim>
				</port>
			</output>
		</layer>
		<layer id="213" name="Reshape_7087619636/restored_convert" type="Convert" version="opset1">
			<data destination_type="f32"/>
			<rt_info>
				<attribute name="decompression" version="0"/>
			</rt_info>
			<input>
				<port id="0">
					<dim>1</dim>
					<dim>120</dim>
					<dim>1</dim>
					<dim>1</dim>
				</port>
			</input>
			<output>
				<port id="1" precision="FP32">
					<dim>1</dim>
					<dim>120</dim>
					<dim>1</dim>
					<dim>1</dim>
				</port>
			</output>
		</layer>
		<layer id="214" name="Conv_31" type="Add" version="opset1">
			<data auto_broadcast="numpy"/>
			<input>
				<port id="0">
					<dim>1</dim>
					<dim>120</dim>
					<dim>104</dim>
					<dim>104</dim>
				</port>
				<port id="1">
					<dim>1</dim>
					<dim>120</dim>
					<dim>1</dim>
					<dim>1</dim>
				</port>
			</input>
			<output>
				<port id="2" precision="FP32" names="onnx::Sigmoid_224">
					<dim>1</dim>
					<dim>120</dim>
					<dim>104</dim>
					<dim>104</dim>
				</port>
			</output>
		</layer>
		<layer id="215" name="Mul_33" type="Swish" version="opset4">
			<input>
				<port id="0">
					<dim>1</dim>
					<dim>120</dim>
					<dim>104</dim>
					<dim>104</dim>
				</port>
			</input>
			<output>
				<port id="1" precision="FP32" names="input.36">
					<dim>1</dim>
					<dim>120</dim>
					<dim>104</dim>
					<dim>104</dim>
				</port>
			</output>
		</layer>
		<layer id="216" name="Conv_38/WithoutBiases/fq_input_0" type="FakeQuantize" version="opset1">
			<data levels="256" auto_broadcast="numpy"/>
			<input>
				<port id="0">
					<dim>1</dim>
					<dim>120</dim>
					<dim>104</dim>
					<dim>104</dim>
				</port>
				<port id="1">
					<dim>1</dim>
					<dim>1</dim>
					<dim>1</dim>
					<dim>1</dim>
				</port>
				<port id="2">
					<dim>1</dim>
					<dim>1</dim>
					<dim>1</dim>
					<dim>1</dim>
				</port>
				<port id="3">
					<dim>1</dim>
					<dim>1</dim>
					<dim>1</dim>
					<dim>1</dim>
				</port>
				<port id="4">
					<dim>1</dim>
					<dim>1</dim>
					<dim>1</dim>
					<dim>1</dim>
				</port>
			</input>
			<output>
				<port id="5" precision="FP32">
					<dim>1</dim>
					<dim>120</dim>
					<dim>104</dim>
					<dim>104</dim>
				</port>
			</output>
		</layer>
		<layer id="217" name="MaxPool_34" type="MaxPool" version="opset8">
			<data strides="2,2" kernel="2,2" pads_begin="0,0" pads_end="0,0" rounding_type="floor" auto_pad="explicit" dilations="1,1" axis="0" index_element_type="i64"/>
			<input>
				<port id="0">
					<dim>1</dim>
					<dim>120</dim>
					<dim>104</dim>
					<dim>104</dim>
				</port>
			</input>
			<output>
				<port id="1" precision="FP32" names="input.40">
					<dim>1</dim>
					<dim>120</dim>
					<dim>52</dim>
					<dim>52</dim>
				</port>
				<port id="2" precision="FP32">
					<dim>1</dim>
					<dim>120</dim>
					<dim>52</dim>
					<dim>52</dim>
					<rt_info/>
				</port>
			</output>
		</layer>
		<layer id="218" name="Conv_35/WithoutBiases/fq_weights_1/scale1352918431" type="Const" version="opset1">
			<data offset="114588" size="160" shape="40,1,1,1" element_type="f32"/>
			<output>
				<port id="0" precision="FP32">
					<dim>40</dim>
					<dim>1</dim>
					<dim>1</dim>
					<dim>1</dim>
				</port>
			</output>
		</layer>
		<layer id="219" name="model.13.conv.weight7809641/restored_convert/quantized1352118617" type="Const" version="opset1">
			<data offset="114748" size="4800" shape="40,120,1,1" element_type="i8"/>
			<output>
				<port id="0" precision="I8">
					<dim>40</dim>
					<dim>120</dim>
					<dim>1</dim>
					<dim>1</dim>
				</port>
			</output>
		</layer>
		<layer id="220" name="model.13.conv.weight7809641/restored_convert/quantized/to_f32" type="Convert" version="opset1">
			<data destination_type="f32"/>
			<input>
				<port id="0">
					<dim>40</dim>
					<dim>120</dim>
					<dim>1</dim>
					<dim>1</dim>
				</port>
			</input>
			<output>
				<port id="1" precision="FP32">
					<dim>40</dim>
					<dim>120</dim>
					<dim>1</dim>
					<dim>1</dim>
				</port>
			</output>
		</layer>
		<layer id="221" name="Conv_35/WithoutBiases/fq_weights_1/mulpiply_by_scale" type="Multiply" version="opset1">
			<data auto_broadcast="numpy"/>
			<input>
				<port id="0">
					<dim>40</dim>
					<dim>120</dim>
					<dim>1</dim>
					<dim>1</dim>
				</port>
				<port id="1">
					<dim>40</dim>
					<dim>1</dim>
					<dim>1</dim>
					<dim>1</dim>
				</port>
			</input>
			<output>
				<port id="2" precision="FP32">
					<dim>40</dim>
					<dim>120</dim>
					<dim>1</dim>
					<dim>1</dim>
				</port>
			</output>
		</layer>
		<layer id="222" name="Conv_35/WithoutBiases" type="Convolution" version="opset1">
			<data auto_pad="explicit" strides="1,1" dilations="1,1" pads_begin="0,0" pads_end="0,0"/>
			<input>
				<port id="0">
					<dim>1</dim>
					<dim>120</dim>
					<dim>52</dim>
					<dim>52</dim>
				</port>
				<port id="1">
					<dim>40</dim>
					<dim>120</dim>
					<dim>1</dim>
					<dim>1</dim>
				</port>
			</input>
			<output>
				<port id="2" precision="FP32">
					<dim>1</dim>
					<dim>40</dim>
					<dim>52</dim>
					<dim>52</dim>
				</port>
			</output>
		</layer>
		<layer id="223" name="Reshape_75978318473" type="Const" version="opset1">
			<data offset="119548" size="80" shape="1,40,1,1" element_type="f16"/>
			<output>
				<port id="0" precision="FP16">
					<dim>1</dim>
					<dim>40</dim>
					<dim>1</dim>
					<dim>1</dim>
				</port>
			</output>
		</layer>
		<layer id="224" name="Reshape_7597839642/restored_convert" type="Convert" version="opset1">
			<data destination_type="f32"/>
			<rt_info>
				<attribute name="decompression" version="0"/>
			</rt_info>
			<input>
				<port id="0">
					<dim>1</dim>
					<dim>40</dim>
					<dim>1</dim>
					<dim>1</dim>
				</port>
			</input>
			<output>
				<port id="1" precision="FP32">
					<dim>1</dim>
					<dim>40</dim>
					<dim>1</dim>
					<dim>1</dim>
				</port>
			</output>
		</layer>
		<layer id="225" name="Conv_35" type="Add" version="opset1">
			<data auto_broadcast="numpy"/>
			<input>
				<port id="0">
					<dim>1</dim>
					<dim>40</dim>
					<dim>52</dim>
					<dim>52</dim>
				</port>
				<port id="1">
					<dim>1</dim>
					<dim>40</dim>
					<dim>1</dim>
					<dim>1</dim>
				</port>
			</input>
			<output>
				<port id="2" precision="FP32" names="onnx::Sigmoid_228">
					<dim>1</dim>
					<dim>40</dim>
					<dim>52</dim>
					<dim>52</dim>
				</port>
			</output>
		</layer>
		<layer id="226" name="Mul_37" type="Swish" version="opset4">
			<input>
				<port id="0">
					<dim>1</dim>
					<dim>40</dim>
					<dim>52</dim>
					<dim>52</dim>
				</port>
			</input>
			<output>
				<port id="1" precision="FP32" names="onnx::Concat_230">
					<dim>1</dim>
					<dim>40</dim>
					<dim>52</dim>
					<dim>52</dim>
				</port>
			</output>
		</layer>
		<layer id="227" name="Concat_44/fq_input_1" type="FakeQuantize" version="opset1">
			<data levels="256" auto_broadcast="numpy"/>
			<input>
				<port id="0">
					<dim>1</dim>
					<dim>40</dim>
					<dim>52</dim>
					<dim>52</dim>
				</port>
				<port id="1">
					<dim>1</dim>
					<dim>1</dim>
					<dim>1</dim>
					<dim>1</dim>
				</port>
				<port id="2">
					<dim>1</dim>
					<dim>1</dim>
					<dim>1</dim>
					<dim>1</dim>
				</port>
				<port id="3">
					<dim>1</dim>
					<dim>1</dim>
					<dim>1</dim>
					<dim>1</dim>
				</port>
				<port id="4">
					<dim>1</dim>
					<dim>1</dim>
					<dim>1</dim>
					<dim>1</dim>
				</port>
			</input>
			<output>
				<port id="5" precision="FP32">
					<dim>1</dim>
					<dim>40</dim>
					<dim>52</dim>
					<dim>52</dim>
				</port>
			</output>
		</layer>
		<layer id="228" name="5602560617393" type="Const" version="opset1">
			<data offset="56" size="4" shape="1,1,1,1" element_type="f32"/>
			<output>
				<port id="0" precision="FP32">
					<dim>1</dim>
					<dim>1</dim>
					<dim>1</dim>
					<dim>1</dim>
				</port>
			</output>
		</layer>
		<layer id="229" name="5603560717213" type="Const" version="opset1">
			<data offset="60" size="4" shape="1,1,1,1" element_type="f32"/>
			<output>
				<port id="0" precision="FP32">
					<dim>1</dim>
					<dim>1</dim>
					<dim>1</dim>
					<dim>1</dim>
				</port>
			</output>
		</layer>
		<layer id="230" name="5604560817222" type="Const" version="opset1">
			<data offset="56" size="4" shape="1,1,1,1" element_type="f32"/>
			<output>
				<port id="0" precision="FP32">
					<dim>1</dim>
					<dim>1</dim>
					<dim>1</dim>
					<dim>1</dim>
				</port>
			</output>
		</layer>
		<layer id="231" name="5605560918452" type="Const" version="opset1">
			<data offset="60" size="4" shape="1,1,1,1" element_type="f32"/>
			<output>
				<port id="0" precision="FP32">
					<dim>1</dim>
					<dim>1</dim>
					<dim>1</dim>
					<dim>1</dim>
				</port>
			</output>
		</layer>
		<layer id="232" name="2993299717834" type="Const" version="opset1">
			<data offset="119628" size="4" shape="1,1,1,1" element_type="f32"/>
			<output>
				<port id="0" precision="FP32">
					<dim>1</dim>
					<dim>1</dim>
					<dim>1</dim>
					<dim>1</dim>
				</port>
			</output>
		</layer>
		<layer id="233" name="2994299817639" type="Const" version="opset1">
			<data offset="119632" size="4" shape="1,1,1,1" element_type="f32"/>
			<output>
				<port id="0" precision="FP32">
					<dim>1</dim>
					<dim>1</dim>
					<dim>1</dim>
					<dim>1</dim>
				</port>
			</output>
		</layer>
		<layer id="234" name="2995299917615" type="Const" version="opset1">
			<data offset="119628" size="4" shape="1,1,1,1" element_type="f32"/>
			<output>
				<port id="0" precision="FP32">
					<dim>1</dim>
					<dim>1</dim>
					<dim>1</dim>
					<dim>1</dim>
				</port>
			</output>
		</layer>
		<layer id="235" name="2996300018365" type="Const" version="opset1">
			<data offset="119632" size="4" shape="1,1,1,1" element_type="f32"/>
			<output>
				<port id="0" precision="FP32">
					<dim>1</dim>
					<dim>1</dim>
					<dim>1</dim>
					<dim>1</dim>
				</port>
			</output>
		</layer>
		<layer id="236" name="Conv_38/WithoutBiases/fq_weights_1/scale1187917423" type="Const" version="opset1">
			<data offset="119636" size="256" shape="64,1,1,1" element_type="f32"/>
			<output>
				<port id="0" precision="FP32">
					<dim>64</dim>
					<dim>1</dim>
					<dim>1</dim>
					<dim>1</dim>
				</port>
			</output>
		</layer>
		<layer id="237" name="model.14.conv.weight7659637/restored_convert/quantized1187118245" type="Const" version="opset1">
			<data offset="119892" size="7680" shape="64,120,1,1" element_type="i8"/>
			<output>
				<port id="0" precision="I8">
					<dim>64</dim>
					<dim>120</dim>
					<dim>1</dim>
					<dim>1</dim>
				</port>
			</output>
		</layer>
		<layer id="238" name="model.14.conv.weight7659637/restored_convert/quantized/to_f32" type="Convert" version="opset1">
			<data destination_type="f32"/>
			<input>
				<port id="0">
					<dim>64</dim>
					<dim>120</dim>
					<dim>1</dim>
					<dim>1</dim>
				</port>
			</input>
			<output>
				<port id="1" precision="FP32">
					<dim>64</dim>
					<dim>120</dim>
					<dim>1</dim>
					<dim>1</dim>
				</port>
			</output>
		</layer>
		<layer id="239" name="Conv_38/WithoutBiases/fq_weights_1/mulpiply_by_scale" type="Multiply" version="opset1">
			<data auto_broadcast="numpy"/>
			<input>
				<port id="0">
					<dim>64</dim>
					<dim>120</dim>
					<dim>1</dim>
					<dim>1</dim>
				</port>
				<port id="1">
					<dim>64</dim>
					<dim>1</dim>
					<dim>1</dim>
					<dim>1</dim>
				</port>
			</input>
			<output>
				<port id="2" precision="FP32">
					<dim>64</dim>
					<dim>120</dim>
					<dim>1</dim>
					<dim>1</dim>
				</port>
			</output>
		</layer>
		<layer id="240" name="Conv_38/WithoutBiases" type="Convolution" version="opset1">
			<data auto_pad="explicit" strides="1,1" dilations="1,1" pads_begin="0,0" pads_end="0,0"/>
			<input>
				<port id="0">
					<dim>1</dim>
					<dim>120</dim>
					<dim>104</dim>
					<dim>104</dim>
				</port>
				<port id="1">
					<dim>64</dim>
					<dim>120</dim>
					<dim>1</dim>
					<dim>1</dim>
				</port>
			</input>
			<output>
				<port id="2" precision="FP32">
					<dim>1</dim>
					<dim>64</dim>
					<dim>104</dim>
					<dim>104</dim>
				</port>
			</output>
		</layer>
		<layer id="241" name="Reshape_80976817813" type="Const" version="opset1">
			<data offset="127572" size="128" shape="1,64,1,1" element_type="f16"/>
			<output>
				<port id="0" precision="FP16">
					<dim>1</dim>
					<dim>64</dim>
					<dim>1</dim>
					<dim>1</dim>
				</port>
			</output>
		</layer>
		<layer id="242" name="Reshape_8097689638/restored_convert" type="Convert" version="opset1">
			<data destination_type="f32"/>
			<rt_info>
				<attribute name="decompression" version="0"/>
			</rt_info>
			<input>
				<port id="0">
					<dim>1</dim>
					<dim>64</dim>
					<dim>1</dim>
					<dim>1</dim>
				</port>
			</input>
			<output>
				<port id="1" precision="FP32">
					<dim>1</dim>
					<dim>64</dim>
					<dim>1</dim>
					<dim>1</dim>
				</port>
			</output>
		</layer>
		<layer id="243" name="Conv_38" type="Add" version="opset1">
			<data auto_broadcast="numpy"/>
			<input>
				<port id="0">
					<dim>1</dim>
					<dim>64</dim>
					<dim>104</dim>
					<dim>104</dim>
				</port>
				<port id="1">
					<dim>1</dim>
					<dim>64</dim>
					<dim>1</dim>
					<dim>1</dim>
				</port>
			</input>
			<output>
				<port id="2" precision="FP32" names="onnx::Sigmoid_231">
					<dim>1</dim>
					<dim>64</dim>
					<dim>104</dim>
					<dim>104</dim>
				</port>
			</output>
		</layer>
		<layer id="244" name="Mul_40" type="Swish" version="opset4">
			<input>
				<port id="0">
					<dim>1</dim>
					<dim>64</dim>
					<dim>104</dim>
					<dim>104</dim>
				</port>
			</input>
			<output>
				<port id="1" precision="FP32" names="input.44">
					<dim>1</dim>
					<dim>64</dim>
					<dim>104</dim>
					<dim>104</dim>
				</port>
			</output>
		</layer>
		<layer id="245" name="Conv_41/WithoutBiases/fq_input_0" type="FakeQuantize" version="opset1">
			<data levels="256" auto_broadcast="numpy"/>
			<input>
				<port id="0">
					<dim>1</dim>
					<dim>64</dim>
					<dim>104</dim>
					<dim>104</dim>
				</port>
				<port id="1">
					<dim>1</dim>
					<dim>1</dim>
					<dim>1</dim>
					<dim>1</dim>
				</port>
				<port id="2">
					<dim>1</dim>
					<dim>1</dim>
					<dim>1</dim>
					<dim>1</dim>
				</port>
				<port id="3">
					<dim>1</dim>
					<dim>1</dim>
					<dim>1</dim>
					<dim>1</dim>
				</port>
				<port id="4">
					<dim>1</dim>
					<dim>1</dim>
					<dim>1</dim>
					<dim>1</dim>
				</port>
			</input>
			<output>
				<port id="5" precision="FP32">
					<dim>1</dim>
					<dim>64</dim>
					<dim>104</dim>
					<dim>104</dim>
				</port>
			</output>
		</layer>
		<layer id="246" name="Conv_41/WithoutBiases/fq_weights_1/scale1268918029" type="Const" version="opset1">
			<data offset="127700" size="256" shape="64,1,1,1" element_type="f32"/>
			<output>
				<port id="0" precision="FP32">
					<dim>64</dim>
					<dim>1</dim>
					<dim>1</dim>
					<dim>1</dim>
				</port>
			</output>
		</layer>
		<layer id="247" name="model.15.conv.weight7729639/restored_convert/quantized1268117024" type="Const" version="opset1">
			<data offset="127956" size="36864" shape="64,64,3,3" element_type="i8"/>
			<output>
				<port id="0" precision="I8">
					<dim>64</dim>
					<dim>64</dim>
					<dim>3</dim>
					<dim>3</dim>
				</port>
			</output>
		</layer>
		<layer id="248" name="model.15.conv.weight7729639/restored_convert/quantized/to_f32" type="Convert" version="opset1">
			<data destination_type="f32"/>
			<input>
				<port id="0">
					<dim>64</dim>
					<dim>64</dim>
					<dim>3</dim>
					<dim>3</dim>
				</port>
			</input>
			<output>
				<port id="1" precision="FP32">
					<dim>64</dim>
					<dim>64</dim>
					<dim>3</dim>
					<dim>3</dim>
				</port>
			</output>
		</layer>
		<layer id="249" name="Conv_41/WithoutBiases/fq_weights_1/mulpiply_by_scale" type="Multiply" version="opset1">
			<data auto_broadcast="numpy"/>
			<input>
				<port id="0">
					<dim>64</dim>
					<dim>64</dim>
					<dim>3</dim>
					<dim>3</dim>
				</port>
				<port id="1">
					<dim>64</dim>
					<dim>1</dim>
					<dim>1</dim>
					<dim>1</dim>
				</port>
			</input>
			<output>
				<port id="2" precision="FP32">
					<dim>64</dim>
					<dim>64</dim>
					<dim>3</dim>
					<dim>3</dim>
				</port>
			</output>
		</layer>
		<layer id="250" name="Conv_41/WithoutBiases" type="Convolution" version="opset1">
			<data auto_pad="explicit" strides="2,2" dilations="1,1" pads_begin="1,1" pads_end="1,1"/>
			<input>
				<port id="0">
					<dim>1</dim>
					<dim>64</dim>
					<dim>104</dim>
					<dim>104</dim>
				</port>
				<port id="1">
					<dim>64</dim>
					<dim>64</dim>
					<dim>3</dim>
					<dim>3</dim>
				</port>
			</input>
			<output>
				<port id="2" precision="FP32">
					<dim>1</dim>
					<dim>64</dim>
					<dim>52</dim>
					<dim>52</dim>
				</port>
			</output>
		</layer>
		<layer id="251" name="Reshape_85977517390" type="Const" version="opset1">
			<data offset="164820" size="128" shape="1,64,1,1" element_type="f16"/>
			<output>
				<port id="0" precision="FP16">
					<dim>1</dim>
					<dim>64</dim>
					<dim>1</dim>
					<dim>1</dim>
				</port>
			</output>
		</layer>
		<layer id="252" name="Reshape_8597759640/restored_convert" type="Convert" version="opset1">
			<data destination_type="f32"/>
			<rt_info>
				<attribute name="decompression" version="0"/>
			</rt_info>
			<input>
				<port id="0">
					<dim>1</dim>
					<dim>64</dim>
					<dim>1</dim>
					<dim>1</dim>
				</port>
			</input>
			<output>
				<port id="1" precision="FP32">
					<dim>1</dim>
					<dim>64</dim>
					<dim>1</dim>
					<dim>1</dim>
				</port>
			</output>
		</layer>
		<layer id="253" name="Conv_41" type="Add" version="opset1">
			<data auto_broadcast="numpy"/>
			<input>
				<port id="0">
					<dim>1</dim>
					<dim>64</dim>
					<dim>52</dim>
					<dim>52</dim>
				</port>
				<port id="1">
					<dim>1</dim>
					<dim>64</dim>
					<dim>1</dim>
					<dim>1</dim>
				</port>
			</input>
			<output>
				<port id="2" precision="FP32" names="onnx::Sigmoid_234">
					<dim>1</dim>
					<dim>64</dim>
					<dim>52</dim>
					<dim>52</dim>
				</port>
			</output>
		</layer>
		<layer id="254" name="Mul_43" type="Swish" version="opset4">
			<input>
				<port id="0">
					<dim>1</dim>
					<dim>64</dim>
					<dim>52</dim>
					<dim>52</dim>
				</port>
			</input>
			<output>
				<port id="1" precision="FP32" names="onnx::Concat_236">
					<dim>1</dim>
					<dim>64</dim>
					<dim>52</dim>
					<dim>52</dim>
				</port>
			</output>
		</layer>
		<layer id="255" name="Concat_44/fq_input_0" type="FakeQuantize" version="opset1">
			<data levels="256" auto_broadcast="numpy"/>
			<input>
				<port id="0">
					<dim>1</dim>
					<dim>64</dim>
					<dim>52</dim>
					<dim>52</dim>
				</port>
				<port id="1">
					<dim>1</dim>
					<dim>1</dim>
					<dim>1</dim>
					<dim>1</dim>
				</port>
				<port id="2">
					<dim>1</dim>
					<dim>1</dim>
					<dim>1</dim>
					<dim>1</dim>
				</port>
				<port id="3">
					<dim>1</dim>
					<dim>1</dim>
					<dim>1</dim>
					<dim>1</dim>
				</port>
				<port id="4">
					<dim>1</dim>
					<dim>1</dim>
					<dim>1</dim>
					<dim>1</dim>
				</port>
			</input>
			<output>
				<port id="5" precision="FP32">
					<dim>1</dim>
					<dim>64</dim>
					<dim>52</dim>
					<dim>52</dim>
				</port>
			</output>
		</layer>
		<layer id="256" name="Concat_44" type="Concat" version="opset1">
			<data axis="1"/>
			<input>
				<port id="0">
					<dim>1</dim>
					<dim>64</dim>
					<dim>52</dim>
					<dim>52</dim>
				</port>
				<port id="1">
					<dim>1</dim>
					<dim>40</dim>
					<dim>52</dim>
					<dim>52</dim>
				</port>
			</input>
			<output>
				<port id="2" precision="FP32" names="input.48">
					<dim>1</dim>
					<dim>104</dim>
					<dim>52</dim>
					<dim>52</dim>
				</port>
			</output>
		</layer>
		<layer id="257" name="Conv_48/WithoutBiases/fq_weights_1/scale1208918824" type="Const" version="opset1">
			<data offset="164948" size="224" shape="56,1,1,1" element_type="f32"/>
			<output>
				<port id="0" precision="FP32">
					<dim>56</dim>
					<dim>1</dim>
					<dim>1</dim>
					<dim>1</dim>
				</port>
			</output>
		</layer>
		<layer id="258" name="model.18.conv.weight7889643/restored_convert/quantized1208117501" type="Const" version="opset1">
			<data offset="165172" size="5824" shape="56,104,1,1" element_type="i8"/>
			<output>
				<port id="0" precision="I8">
					<dim>56</dim>
					<dim>104</dim>
					<dim>1</dim>
					<dim>1</dim>
				</port>
			</output>
		</layer>
		<layer id="259" name="model.18.conv.weight7889643/restored_convert/quantized/to_f32" type="Convert" version="opset1">
			<data destination_type="f32"/>
			<input>
				<port id="0">
					<dim>56</dim>
					<dim>104</dim>
					<dim>1</dim>
					<dim>1</dim>
				</port>
			</input>
			<output>
				<port id="1" precision="FP32">
					<dim>56</dim>
					<dim>104</dim>
					<dim>1</dim>
					<dim>1</dim>
				</port>
			</output>
		</layer>
		<layer id="260" name="Conv_48/WithoutBiases/fq_weights_1/mulpiply_by_scale" type="Multiply" version="opset1">
			<data auto_broadcast="numpy"/>
			<input>
				<port id="0">
					<dim>56</dim>
					<dim>104</dim>
					<dim>1</dim>
					<dim>1</dim>
				</port>
				<port id="1">
					<dim>56</dim>
					<dim>1</dim>
					<dim>1</dim>
					<dim>1</dim>
				</port>
			</input>
			<output>
				<port id="2" precision="FP32">
					<dim>56</dim>
					<dim>104</dim>
					<dim>1</dim>
					<dim>1</dim>
				</port>
			</output>
		</layer>
		<layer id="261" name="Conv_48/WithoutBiases" type="Convolution" version="opset1">
			<data auto_pad="explicit" strides="1,1" dilations="1,1" pads_begin="0,0" pads_end="0,0"/>
			<input>
				<port id="0">
					<dim>1</dim>
					<dim>104</dim>
					<dim>52</dim>
					<dim>52</dim>
				</port>
				<port id="1">
					<dim>56</dim>
					<dim>104</dim>
					<dim>1</dim>
					<dim>1</dim>
				</port>
			</input>
			<output>
				<port id="2" precision="FP32">
					<dim>1</dim>
					<dim>56</dim>
					<dim>52</dim>
					<dim>52</dim>
				</port>
			</output>
		</layer>
		<layer id="262" name="Reshape_96079118578" type="Const" version="opset1">
			<data offset="170996" size="112" shape="1,56,1,1" element_type="f16"/>
			<output>
				<port id="0" precision="FP16">
					<dim>1</dim>
					<dim>56</dim>
					<dim>1</dim>
					<dim>1</dim>
				</port>
			</output>
		</layer>
		<layer id="263" name="Reshape_9607919644/restored_convert" type="Convert" version="opset1">
			<data destination_type="f32"/>
			<rt_info>
				<attribute name="decompression" version="0"/>
			</rt_info>
			<input>
				<port id="0">
					<dim>1</dim>
					<dim>56</dim>
					<dim>1</dim>
					<dim>1</dim>
				</port>
			</input>
			<output>
				<port id="1" precision="FP32">
					<dim>1</dim>
					<dim>56</dim>
					<dim>1</dim>
					<dim>1</dim>
				</port>
			</output>
		</layer>
		<layer id="264" name="Conv_48" type="Add" version="opset1">
			<data auto_broadcast="numpy"/>
			<input>
				<port id="0">
					<dim>1</dim>
					<dim>56</dim>
					<dim>52</dim>
					<dim>52</dim>
				</port>
				<port id="1">
					<dim>1</dim>
					<dim>56</dim>
					<dim>1</dim>
					<dim>1</dim>
				</port>
			</input>
			<output>
				<port id="2" precision="FP32" names="onnx::Sigmoid_241">
					<dim>1</dim>
					<dim>56</dim>
					<dim>52</dim>
					<dim>52</dim>
				</port>
			</output>
		</layer>
		<layer id="265" name="Mul_50" type="Swish" version="opset4">
			<input>
				<port id="0">
					<dim>1</dim>
					<dim>56</dim>
					<dim>52</dim>
					<dim>52</dim>
				</port>
			</input>
			<output>
				<port id="1" precision="FP32" names="input.52">
					<dim>1</dim>
					<dim>56</dim>
					<dim>52</dim>
					<dim>52</dim>
				</port>
			</output>
		</layer>
		<layer id="266" name="Concat_63/fq_input_2" type="FakeQuantize" version="opset1">
			<data levels="256" auto_broadcast="numpy"/>
			<input>
				<port id="0">
					<dim>1</dim>
					<dim>56</dim>
					<dim>52</dim>
					<dim>52</dim>
				</port>
				<port id="1">
					<dim>1</dim>
					<dim>1</dim>
					<dim>1</dim>
					<dim>1</dim>
				</port>
				<port id="2">
					<dim>1</dim>
					<dim>1</dim>
					<dim>1</dim>
					<dim>1</dim>
				</port>
				<port id="3">
					<dim>1</dim>
					<dim>1</dim>
					<dim>1</dim>
					<dim>1</dim>
				</port>
				<port id="4">
					<dim>1</dim>
					<dim>1</dim>
					<dim>1</dim>
					<dim>1</dim>
				</port>
			</input>
			<output>
				<port id="5" precision="FP32">
					<dim>1</dim>
					<dim>56</dim>
					<dim>52</dim>
					<dim>52</dim>
				</port>
			</output>
		</layer>
		<layer id="267" name="Conv_51/WithoutBiases/fq_weights_1/scale1280917141" type="Const" version="opset1">
			<data offset="171108" size="288" shape="72,1,1,1" element_type="f32"/>
			<output>
				<port id="0" precision="FP32">
					<dim>72</dim>
					<dim>1</dim>
					<dim>1</dim>
					<dim>1</dim>
				</port>
			</output>
		</layer>
		<layer id="268" name="model.19.conv.weight7959645/restored_convert/quantized1280117996" type="Const" version="opset1">
			<data offset="171396" size="36288" shape="72,56,3,3" element_type="i8"/>
			<output>
				<port id="0" precision="I8">
					<dim>72</dim>
					<dim>56</dim>
					<dim>3</dim>
					<dim>3</dim>
				</port>
			</output>
		</layer>
		<layer id="269" name="model.19.conv.weight7959645/restored_convert/quantized/to_f32" type="Convert" version="opset1">
			<data destination_type="f32"/>
			<input>
				<port id="0">
					<dim>72</dim>
					<dim>56</dim>
					<dim>3</dim>
					<dim>3</dim>
				</port>
			</input>
			<output>
				<port id="1" precision="FP32">
					<dim>72</dim>
					<dim>56</dim>
					<dim>3</dim>
					<dim>3</dim>
				</port>
			</output>
		</layer>
		<layer id="270" name="Conv_51/WithoutBiases/fq_weights_1/mulpiply_by_scale" type="Multiply" version="opset1">
			<data auto_broadcast="numpy"/>
			<input>
				<port id="0">
					<dim>72</dim>
					<dim>56</dim>
					<dim>3</dim>
					<dim>3</dim>
				</port>
				<port id="1">
					<dim>72</dim>
					<dim>1</dim>
					<dim>1</dim>
					<dim>1</dim>
				</port>
			</input>
			<output>
				<port id="2" precision="FP32">
					<dim>72</dim>
					<dim>56</dim>
					<dim>3</dim>
					<dim>3</dim>
				</port>
			</output>
		</layer>
		<layer id="271" name="Conv_51/WithoutBiases" type="Convolution" version="opset1">
			<data auto_pad="explicit" strides="1,1" dilations="1,1" pads_begin="1,1" pads_end="1,1"/>
			<input>
				<port id="0">
					<dim>1</dim>
					<dim>56</dim>
					<dim>52</dim>
					<dim>52</dim>
				</port>
				<port id="1">
					<dim>72</dim>
					<dim>56</dim>
					<dim>3</dim>
					<dim>3</dim>
				</port>
			</input>
			<output>
				<port id="2" precision="FP32">
					<dim>1</dim>
					<dim>72</dim>
					<dim>52</dim>
					<dim>52</dim>
				</port>
			</output>
		</layer>
		<layer id="272" name="Reshape_101079817582" type="Const" version="opset1">
			<data offset="207684" size="144" shape="1,72,1,1" element_type="f16"/>
			<output>
				<port id="0" precision="FP16">
					<dim>1</dim>
					<dim>72</dim>
					<dim>1</dim>
					<dim>1</dim>
				</port>
			</output>
		</layer>
		<layer id="273" name="Reshape_10107989646/restored_convert" type="Convert" version="opset1">
			<data destination_type="f32"/>
			<rt_info>
				<attribute name="decompression" version="0"/>
			</rt_info>
			<input>
				<port id="0">
					<dim>1</dim>
					<dim>72</dim>
					<dim>1</dim>
					<dim>1</dim>
				</port>
			</input>
			<output>
				<port id="1" precision="FP32">
					<dim>1</dim>
					<dim>72</dim>
					<dim>1</dim>
					<dim>1</dim>
				</port>
			</output>
		</layer>
		<layer id="274" name="Conv_51" type="Add" version="opset1">
			<data auto_broadcast="numpy"/>
			<input>
				<port id="0">
					<dim>1</dim>
					<dim>72</dim>
					<dim>52</dim>
					<dim>52</dim>
				</port>
				<port id="1">
					<dim>1</dim>
					<dim>72</dim>
					<dim>1</dim>
					<dim>1</dim>
				</port>
			</input>
			<output>
				<port id="2" precision="FP32" names="onnx::Sigmoid_244">
					<dim>1</dim>
					<dim>72</dim>
					<dim>52</dim>
					<dim>52</dim>
				</port>
			</output>
		</layer>
		<layer id="275" name="Mul_53" type="Swish" version="opset4">
			<input>
				<port id="0">
					<dim>1</dim>
					<dim>72</dim>
					<dim>52</dim>
					<dim>52</dim>
				</port>
			</input>
			<output>
				<port id="1" precision="FP32" names="input.56">
					<dim>1</dim>
					<dim>72</dim>
					<dim>52</dim>
					<dim>52</dim>
				</port>
			</output>
		</layer>
		<layer id="276" name="Conv_54/WithoutBiases/fq_input_0" type="FakeQuantize" version="opset1">
			<data levels="256" auto_broadcast="numpy"/>
			<input>
				<port id="0">
					<dim>1</dim>
					<dim>72</dim>
					<dim>52</dim>
					<dim>52</dim>
				</port>
				<port id="1">
					<dim>1</dim>
					<dim>1</dim>
					<dim>1</dim>
					<dim>1</dim>
				</port>
				<port id="2">
					<dim>1</dim>
					<dim>1</dim>
					<dim>1</dim>
					<dim>1</dim>
				</port>
				<port id="3">
					<dim>1</dim>
					<dim>1</dim>
					<dim>1</dim>
					<dim>1</dim>
				</port>
				<port id="4">
					<dim>1</dim>
					<dim>1</dim>
					<dim>1</dim>
					<dim>1</dim>
				</port>
			</input>
			<output>
				<port id="5" precision="FP32">
					<dim>1</dim>
					<dim>72</dim>
					<dim>52</dim>
					<dim>52</dim>
				</port>
			</output>
		</layer>
		<layer id="277" name="Conv_54/WithoutBiases/fq_weights_1/scale1220918671" type="Const" version="opset1">
			<data offset="207828" size="320" shape="80,1,1,1" element_type="f32"/>
			<output>
				<port id="0" precision="FP32">
					<dim>80</dim>
					<dim>1</dim>
					<dim>1</dim>
					<dim>1</dim>
				</port>
			</output>
		</layer>
		<layer id="278" name="model.20.conv.weight8029647/restored_convert/quantized1220118467" type="Const" version="opset1">
			<data offset="208148" size="51840" shape="80,72,3,3" element_type="i8"/>
			<output>
				<port id="0" precision="I8">
					<dim>80</dim>
					<dim>72</dim>
					<dim>3</dim>
					<dim>3</dim>
				</port>
			</output>
		</layer>
		<layer id="279" name="model.20.conv.weight8029647/restored_convert/quantized/to_f32" type="Convert" version="opset1">
			<data destination_type="f32"/>
			<input>
				<port id="0">
					<dim>80</dim>
					<dim>72</dim>
					<dim>3</dim>
					<dim>3</dim>
				</port>
			</input>
			<output>
				<port id="1" precision="FP32">
					<dim>80</dim>
					<dim>72</dim>
					<dim>3</dim>
					<dim>3</dim>
				</port>
			</output>
		</layer>
		<layer id="280" name="Conv_54/WithoutBiases/fq_weights_1/mulpiply_by_scale" type="Multiply" version="opset1">
			<data auto_broadcast="numpy"/>
			<input>
				<port id="0">
					<dim>80</dim>
					<dim>72</dim>
					<dim>3</dim>
					<dim>3</dim>
				</port>
				<port id="1">
					<dim>80</dim>
					<dim>1</dim>
					<dim>1</dim>
					<dim>1</dim>
				</port>
			</input>
			<output>
				<port id="2" precision="FP32">
					<dim>80</dim>
					<dim>72</dim>
					<dim>3</dim>
					<dim>3</dim>
				</port>
			</output>
		</layer>
		<layer id="281" name="Conv_54/WithoutBiases" type="Convolution" version="opset1">
			<data auto_pad="explicit" strides="1,1" dilations="1,1" pads_begin="1,1" pads_end="1,1"/>
			<input>
				<port id="0">
					<dim>1</dim>
					<dim>72</dim>
					<dim>52</dim>
					<dim>52</dim>
				</port>
				<port id="1">
					<dim>80</dim>
					<dim>72</dim>
					<dim>3</dim>
					<dim>3</dim>
				</port>
			</input>
			<output>
				<port id="2" precision="FP32">
					<dim>1</dim>
					<dim>80</dim>
					<dim>52</dim>
					<dim>52</dim>
				</port>
			</output>
		</layer>
		<layer id="282" name="Reshape_106080518662" type="Const" version="opset1">
			<data offset="259988" size="160" shape="1,80,1,1" element_type="f16"/>
			<output>
				<port id="0" precision="FP16">
					<dim>1</dim>
					<dim>80</dim>
					<dim>1</dim>
					<dim>1</dim>
				</port>
			</output>
		</layer>
		<layer id="283" name="Reshape_10608059648/restored_convert" type="Convert" version="opset1">
			<data destination_type="f32"/>
			<rt_info>
				<attribute name="decompression" version="0"/>
			</rt_info>
			<input>
				<port id="0">
					<dim>1</dim>
					<dim>80</dim>
					<dim>1</dim>
					<dim>1</dim>
				</port>
			</input>
			<output>
				<port id="1" precision="FP32">
					<dim>1</dim>
					<dim>80</dim>
					<dim>1</dim>
					<dim>1</dim>
				</port>
			</output>
		</layer>
		<layer id="284" name="Conv_54" type="Add" version="opset1">
			<data auto_broadcast="numpy"/>
			<input>
				<port id="0">
					<dim>1</dim>
					<dim>80</dim>
					<dim>52</dim>
					<dim>52</dim>
				</port>
				<port id="1">
					<dim>1</dim>
					<dim>80</dim>
					<dim>1</dim>
					<dim>1</dim>
				</port>
			</input>
			<output>
				<port id="2" precision="FP32" names="onnx::Sigmoid_247">
					<dim>1</dim>
					<dim>80</dim>
					<dim>52</dim>
					<dim>52</dim>
				</port>
			</output>
		</layer>
		<layer id="285" name="Mul_56" type="Swish" version="opset4">
			<input>
				<port id="0">
					<dim>1</dim>
					<dim>80</dim>
					<dim>52</dim>
					<dim>52</dim>
				</port>
			</input>
			<output>
				<port id="1" precision="FP32" names="input.60">
					<dim>1</dim>
					<dim>80</dim>
					<dim>52</dim>
					<dim>52</dim>
				</port>
			</output>
		</layer>
		<layer id="286" name="Concat_63/fq_input_1" type="FakeQuantize" version="opset1">
			<data levels="256" auto_broadcast="numpy"/>
			<input>
				<port id="0">
					<dim>1</dim>
					<dim>80</dim>
					<dim>52</dim>
					<dim>52</dim>
				</port>
				<port id="1">
					<dim>1</dim>
					<dim>1</dim>
					<dim>1</dim>
					<dim>1</dim>
				</port>
				<port id="2">
					<dim>1</dim>
					<dim>1</dim>
					<dim>1</dim>
					<dim>1</dim>
				</port>
				<port id="3">
					<dim>1</dim>
					<dim>1</dim>
					<dim>1</dim>
					<dim>1</dim>
				</port>
				<port id="4">
					<dim>1</dim>
					<dim>1</dim>
					<dim>1</dim>
					<dim>1</dim>
				</port>
			</input>
			<output>
				<port id="5" precision="FP32">
					<dim>1</dim>
					<dim>80</dim>
					<dim>52</dim>
					<dim>52</dim>
				</port>
			</output>
		</layer>
		<layer id="287" name="Conv_57/WithoutBiases/fq_weights_1/scale1307918176" type="Const" version="opset1">
			<data offset="260148" size="320" shape="80,1,1,1" element_type="f32"/>
			<output>
				<port id="0" precision="FP32">
					<dim>80</dim>
					<dim>1</dim>
					<dim>1</dim>
					<dim>1</dim>
				</port>
			</output>
		</layer>
		<layer id="288" name="model.21.conv.weight8099649/restored_convert/quantized1307117867" type="Const" version="opset1">
			<data offset="260468" size="57600" shape="80,80,3,3" element_type="i8"/>
			<output>
				<port id="0" precision="I8">
					<dim>80</dim>
					<dim>80</dim>
					<dim>3</dim>
					<dim>3</dim>
				</port>
			</output>
		</layer>
		<layer id="289" name="model.21.conv.weight8099649/restored_convert/quantized/to_f32" type="Convert" version="opset1">
			<data destination_type="f32"/>
			<input>
				<port id="0">
					<dim>80</dim>
					<dim>80</dim>
					<dim>3</dim>
					<dim>3</dim>
				</port>
			</input>
			<output>
				<port id="1" precision="FP32">
					<dim>80</dim>
					<dim>80</dim>
					<dim>3</dim>
					<dim>3</dim>
				</port>
			</output>
		</layer>
		<layer id="290" name="Conv_57/WithoutBiases/fq_weights_1/mulpiply_by_scale" type="Multiply" version="opset1">
			<data auto_broadcast="numpy"/>
			<input>
				<port id="0">
					<dim>80</dim>
					<dim>80</dim>
					<dim>3</dim>
					<dim>3</dim>
				</port>
				<port id="1">
					<dim>80</dim>
					<dim>1</dim>
					<dim>1</dim>
					<dim>1</dim>
				</port>
			</input>
			<output>
				<port id="2" precision="FP32">
					<dim>80</dim>
					<dim>80</dim>
					<dim>3</dim>
					<dim>3</dim>
				</port>
			</output>
		</layer>
		<layer id="291" name="Conv_57/WithoutBiases" type="Convolution" version="opset1">
			<data auto_pad="explicit" strides="1,1" dilations="1,1" pads_begin="1,1" pads_end="1,1"/>
			<input>
				<port id="0">
					<dim>1</dim>
					<dim>80</dim>
					<dim>52</dim>
					<dim>52</dim>
				</port>
				<port id="1">
					<dim>80</dim>
					<dim>80</dim>
					<dim>3</dim>
					<dim>3</dim>
				</port>
			</input>
			<output>
				<port id="2" precision="FP32">
					<dim>1</dim>
					<dim>80</dim>
					<dim>52</dim>
					<dim>52</dim>
				</port>
			</output>
		</layer>
		<layer id="292" name="Reshape_111081217807" type="Const" version="opset1">
			<data offset="318068" size="160" shape="1,80,1,1" element_type="f16"/>
			<output>
				<port id="0" precision="FP16">
					<dim>1</dim>
					<dim>80</dim>
					<dim>1</dim>
					<dim>1</dim>
				</port>
			</output>
		</layer>
		<layer id="293" name="Reshape_11108129650/restored_convert" type="Convert" version="opset1">
			<data destination_type="f32"/>
			<rt_info>
				<attribute name="decompression" version="0"/>
			</rt_info>
			<input>
				<port id="0">
					<dim>1</dim>
					<dim>80</dim>
					<dim>1</dim>
					<dim>1</dim>
				</port>
			</input>
			<output>
				<port id="1" precision="FP32">
					<dim>1</dim>
					<dim>80</dim>
					<dim>1</dim>
					<dim>1</dim>
				</port>
			</output>
		</layer>
		<layer id="294" name="Conv_57" type="Add" version="opset1">
			<data auto_broadcast="numpy"/>
			<input>
				<port id="0">
					<dim>1</dim>
					<dim>80</dim>
					<dim>52</dim>
					<dim>52</dim>
				</port>
				<port id="1">
					<dim>1</dim>
					<dim>80</dim>
					<dim>1</dim>
					<dim>1</dim>
				</port>
			</input>
			<output>
				<port id="2" precision="FP32" names="onnx::Sigmoid_250">
					<dim>1</dim>
					<dim>80</dim>
					<dim>52</dim>
					<dim>52</dim>
				</port>
			</output>
		</layer>
		<layer id="295" name="Mul_59" type="Swish" version="opset4">
			<input>
				<port id="0">
					<dim>1</dim>
					<dim>80</dim>
					<dim>52</dim>
					<dim>52</dim>
				</port>
			</input>
			<output>
				<port id="1" precision="FP32" names="input.64">
					<dim>1</dim>
					<dim>80</dim>
					<dim>52</dim>
					<dim>52</dim>
				</port>
			</output>
		</layer>
		<layer id="296" name="Conv_60/WithoutBiases/fq_input_0" type="FakeQuantize" version="opset1">
			<data levels="256" auto_broadcast="numpy"/>
			<input>
				<port id="0">
					<dim>1</dim>
					<dim>80</dim>
					<dim>52</dim>
					<dim>52</dim>
				</port>
				<port id="1">
					<dim>1</dim>
					<dim>1</dim>
					<dim>1</dim>
					<dim>1</dim>
				</port>
				<port id="2">
					<dim>1</dim>
					<dim>1</dim>
					<dim>1</dim>
					<dim>1</dim>
				</port>
				<port id="3">
					<dim>1</dim>
					<dim>1</dim>
					<dim>1</dim>
					<dim>1</dim>
				</port>
				<port id="4">
					<dim>1</dim>
					<dim>1</dim>
					<dim>1</dim>
					<dim>1</dim>
				</port>
			</input>
			<output>
				<port id="5" precision="FP32">
					<dim>1</dim>
					<dim>80</dim>
					<dim>52</dim>
					<dim>52</dim>
				</port>
			</output>
		</layer>
		<layer id="297" name="Conv_60/WithoutBiases/fq_weights_1/scale1229918068" type="Const" version="opset1">
			<data offset="318228" size="288" shape="72,1,1,1" element_type="f32"/>
			<output>
				<port id="0" precision="FP32">
					<dim>72</dim>
					<dim>1</dim>
					<dim>1</dim>
					<dim>1</dim>
				</port>
			</output>
		</layer>
		<layer id="298" name="model.22.conv.weight8169651/restored_convert/quantized1229118209" type="Const" version="opset1">
			<data offset="318516" size="51840" shape="72,80,3,3" element_type="i8"/>
			<output>
				<port id="0" precision="I8">
					<dim>72</dim>
					<dim>80</dim>
					<dim>3</dim>
					<dim>3</dim>
				</port>
			</output>
		</layer>
		<layer id="299" name="model.22.conv.weight8169651/restored_convert/quantized/to_f32" type="Convert" version="opset1">
			<data destination_type="f32"/>
			<input>
				<port id="0">
					<dim>72</dim>
					<dim>80</dim>
					<dim>3</dim>
					<dim>3</dim>
				</port>
			</input>
			<output>
				<port id="1" precision="FP32">
					<dim>72</dim>
					<dim>80</dim>
					<dim>3</dim>
					<dim>3</dim>
				</port>
			</output>
		</layer>
		<layer id="300" name="Conv_60/WithoutBiases/fq_weights_1/mulpiply_by_scale" type="Multiply" version="opset1">
			<data auto_broadcast="numpy"/>
			<input>
				<port id="0">
					<dim>72</dim>
					<dim>80</dim>
					<dim>3</dim>
					<dim>3</dim>
				</port>
				<port id="1">
					<dim>72</dim>
					<dim>1</dim>
					<dim>1</dim>
					<dim>1</dim>
				</port>
			</input>
			<output>
				<port id="2" precision="FP32">
					<dim>72</dim>
					<dim>80</dim>
					<dim>3</dim>
					<dim>3</dim>
				</port>
			</output>
		</layer>
		<layer id="301" name="Conv_60/WithoutBiases" type="Convolution" version="opset1">
			<data auto_pad="explicit" strides="1,1" dilations="1,1" pads_begin="1,1" pads_end="1,1"/>
			<input>
				<port id="0">
					<dim>1</dim>
					<dim>80</dim>
					<dim>52</dim>
					<dim>52</dim>
				</port>
				<port id="1">
					<dim>72</dim>
					<dim>80</dim>
					<dim>3</dim>
					<dim>3</dim>
				</port>
			</input>
			<output>
				<port id="2" precision="FP32">
					<dim>1</dim>
					<dim>72</dim>
					<dim>52</dim>
					<dim>52</dim>
				</port>
			</output>
		</layer>
		<layer id="302" name="Reshape_116081918713" type="Const" version="opset1">
			<data offset="370356" size="144" shape="1,72,1,1" element_type="f16"/>
			<output>
				<port id="0" precision="FP16">
					<dim>1</dim>
					<dim>72</dim>
					<dim>1</dim>
					<dim>1</dim>
				</port>
			</output>
		</layer>
		<layer id="303" name="Reshape_11608199652/restored_convert" type="Convert" version="opset1">
			<data destination_type="f32"/>
			<rt_info>
				<attribute name="decompression" version="0"/>
			</rt_info>
			<input>
				<port id="0">
					<dim>1</dim>
					<dim>72</dim>
					<dim>1</dim>
					<dim>1</dim>
				</port>
			</input>
			<output>
				<port id="1" precision="FP32">
					<dim>1</dim>
					<dim>72</dim>
					<dim>1</dim>
					<dim>1</dim>
				</port>
			</output>
		</layer>
		<layer id="304" name="Conv_60" type="Add" version="opset1">
			<data auto_broadcast="numpy"/>
			<input>
				<port id="0">
					<dim>1</dim>
					<dim>72</dim>
					<dim>52</dim>
					<dim>52</dim>
				</port>
				<port id="1">
					<dim>1</dim>
					<dim>72</dim>
					<dim>1</dim>
					<dim>1</dim>
				</port>
			</input>
			<output>
				<port id="2" precision="FP32" names="onnx::Sigmoid_253">
					<dim>1</dim>
					<dim>72</dim>
					<dim>52</dim>
					<dim>52</dim>
				</port>
			</output>
		</layer>
		<layer id="305" name="Mul_62" type="Swish" version="opset4">
			<input>
				<port id="0">
					<dim>1</dim>
					<dim>72</dim>
					<dim>52</dim>
					<dim>52</dim>
				</port>
			</input>
			<output>
				<port id="1" precision="FP32" names="onnx::Concat_255">
					<dim>1</dim>
					<dim>72</dim>
					<dim>52</dim>
					<dim>52</dim>
				</port>
			</output>
		</layer>
		<layer id="306" name="Concat_63/fq_input_0" type="FakeQuantize" version="opset1">
			<data levels="256" auto_broadcast="numpy"/>
			<input>
				<port id="0">
					<dim>1</dim>
					<dim>72</dim>
					<dim>52</dim>
					<dim>52</dim>
				</port>
				<port id="1">
					<dim>1</dim>
					<dim>1</dim>
					<dim>1</dim>
					<dim>1</dim>
				</port>
				<port id="2">
					<dim>1</dim>
					<dim>1</dim>
					<dim>1</dim>
					<dim>1</dim>
				</port>
				<port id="3">
					<dim>1</dim>
					<dim>1</dim>
					<dim>1</dim>
					<dim>1</dim>
				</port>
				<port id="4">
					<dim>1</dim>
					<dim>1</dim>
					<dim>1</dim>
					<dim>1</dim>
				</port>
			</input>
			<output>
				<port id="5" precision="FP32">
					<dim>1</dim>
					<dim>72</dim>
					<dim>52</dim>
					<dim>52</dim>
				</port>
			</output>
		</layer>
		<layer id="307" name="5672567618872" type="Const" version="opset1">
			<data offset="40" size="4" shape="1,1,1,1" element_type="f32"/>
			<output>
				<port id="0" precision="FP32">
					<dim>1</dim>
					<dim>1</dim>
					<dim>1</dim>
					<dim>1</dim>
				</port>
			</output>
		</layer>
		<layer id="308" name="5673567718056" type="Const" version="opset1">
			<data offset="44" size="4" shape="1,1,1,1" element_type="f32"/>
			<output>
				<port id="0" precision="FP32">
					<dim>1</dim>
					<dim>1</dim>
					<dim>1</dim>
					<dim>1</dim>
				</port>
			</output>
		</layer>
		<layer id="309" name="5674567818818" type="Const" version="opset1">
			<data offset="40" size="4" shape="1,1,1,1" element_type="f32"/>
			<output>
				<port id="0" precision="FP32">
					<dim>1</dim>
					<dim>1</dim>
					<dim>1</dim>
					<dim>1</dim>
				</port>
			</output>
		</layer>
		<layer id="310" name="5675567918593" type="Const" version="opset1">
			<data offset="44" size="4" shape="1,1,1,1" element_type="f32"/>
			<output>
				<port id="0" precision="FP32">
					<dim>1</dim>
					<dim>1</dim>
					<dim>1</dim>
					<dim>1</dim>
				</port>
			</output>
		</layer>
		<layer id="311" name="Conv_45/WithoutBiases/fq_weights_1/scale1265917261" type="Const" version="opset1">
			<data offset="370500" size="256" shape="64,1,1,1" element_type="f32"/>
			<output>
				<port id="0" precision="FP32">
					<dim>64</dim>
					<dim>1</dim>
					<dim>1</dim>
					<dim>1</dim>
				</port>
			</output>
		</layer>
		<layer id="312" name="model.17.conv.weight8239653/restored_convert/quantized1265118545" type="Const" version="opset1">
			<data offset="370756" size="6656" shape="64,104,1,1" element_type="i8"/>
			<output>
				<port id="0" precision="I8">
					<dim>64</dim>
					<dim>104</dim>
					<dim>1</dim>
					<dim>1</dim>
				</port>
			</output>
		</layer>
		<layer id="313" name="model.17.conv.weight8239653/restored_convert/quantized/to_f32" type="Convert" version="opset1">
			<data destination_type="f32"/>
			<input>
				<port id="0">
					<dim>64</dim>
					<dim>104</dim>
					<dim>1</dim>
					<dim>1</dim>
				</port>
			</input>
			<output>
				<port id="1" precision="FP32">
					<dim>64</dim>
					<dim>104</dim>
					<dim>1</dim>
					<dim>1</dim>
				</port>
			</output>
		</layer>
		<layer id="314" name="Conv_45/WithoutBiases/fq_weights_1/mulpiply_by_scale" type="Multiply" version="opset1">
			<data auto_broadcast="numpy"/>
			<input>
				<port id="0">
					<dim>64</dim>
					<dim>104</dim>
					<dim>1</dim>
					<dim>1</dim>
				</port>
				<port id="1">
					<dim>64</dim>
					<dim>1</dim>
					<dim>1</dim>
					<dim>1</dim>
				</port>
			</input>
			<output>
				<port id="2" precision="FP32">
					<dim>64</dim>
					<dim>104</dim>
					<dim>1</dim>
					<dim>1</dim>
				</port>
			</output>
		</layer>
		<layer id="315" name="Conv_45/WithoutBiases" type="Convolution" version="opset1">
			<data auto_pad="explicit" strides="1,1" dilations="1,1" pads_begin="0,0" pads_end="0,0"/>
			<input>
				<port id="0">
					<dim>1</dim>
					<dim>104</dim>
					<dim>52</dim>
					<dim>52</dim>
				</port>
				<port id="1">
					<dim>64</dim>
					<dim>104</dim>
					<dim>1</dim>
					<dim>1</dim>
				</port>
			</input>
			<output>
				<port id="2" precision="FP32">
					<dim>1</dim>
					<dim>64</dim>
					<dim>52</dim>
					<dim>52</dim>
				</port>
			</output>
		</layer>
		<layer id="316" name="Reshape_91082618125" type="Const" version="opset1">
			<data offset="377412" size="128" shape="1,64,1,1" element_type="f16"/>
			<output>
				<port id="0" precision="FP16">
					<dim>1</dim>
					<dim>64</dim>
					<dim>1</dim>
					<dim>1</dim>
				</port>
			</output>
		</layer>
		<layer id="317" name="Reshape_9108269654/restored_convert" type="Convert" version="opset1">
			<data destination_type="f32"/>
			<rt_info>
				<attribute name="decompression" version="0"/>
			</rt_info>
			<input>
				<port id="0">
					<dim>1</dim>
					<dim>64</dim>
					<dim>1</dim>
					<dim>1</dim>
				</port>
			</input>
			<output>
				<port id="1" precision="FP32">
					<dim>1</dim>
					<dim>64</dim>
					<dim>1</dim>
					<dim>1</dim>
				</port>
			</output>
		</layer>
		<layer id="318" name="Conv_45" type="Add" version="opset1">
			<data auto_broadcast="numpy"/>
			<input>
				<port id="0">
					<dim>1</dim>
					<dim>64</dim>
					<dim>52</dim>
					<dim>52</dim>
				</port>
				<port id="1">
					<dim>1</dim>
					<dim>64</dim>
					<dim>1</dim>
					<dim>1</dim>
				</port>
			</input>
			<output>
				<port id="2" precision="FP32" names="onnx::Sigmoid_238">
					<dim>1</dim>
					<dim>64</dim>
					<dim>52</dim>
					<dim>52</dim>
				</port>
			</output>
		</layer>
		<layer id="319" name="Mul_47" type="Swish" version="opset4">
			<input>
				<port id="0">
					<dim>1</dim>
					<dim>64</dim>
					<dim>52</dim>
					<dim>52</dim>
				</port>
			</input>
			<output>
				<port id="1" precision="FP32" names="onnx::Concat_240">
					<dim>1</dim>
					<dim>64</dim>
					<dim>52</dim>
					<dim>52</dim>
				</port>
			</output>
		</layer>
		<layer id="320" name="Concat_63/fq_input_3" type="FakeQuantize" version="opset1">
			<data levels="256" auto_broadcast="numpy"/>
			<input>
				<port id="0">
					<dim>1</dim>
					<dim>64</dim>
					<dim>52</dim>
					<dim>52</dim>
				</port>
				<port id="1">
					<dim>1</dim>
					<dim>1</dim>
					<dim>1</dim>
					<dim>1</dim>
				</port>
				<port id="2">
					<dim>1</dim>
					<dim>1</dim>
					<dim>1</dim>
					<dim>1</dim>
				</port>
				<port id="3">
					<dim>1</dim>
					<dim>1</dim>
					<dim>1</dim>
					<dim>1</dim>
				</port>
				<port id="4">
					<dim>1</dim>
					<dim>1</dim>
					<dim>1</dim>
					<dim>1</dim>
				</port>
			</input>
			<output>
				<port id="5" precision="FP32">
					<dim>1</dim>
					<dim>64</dim>
					<dim>52</dim>
					<dim>52</dim>
				</port>
			</output>
		</layer>
		<layer id="321" name="Concat_63" type="Concat" version="opset1">
			<data axis="1"/>
			<input>
				<port id="0">
					<dim>1</dim>
					<dim>72</dim>
					<dim>52</dim>
					<dim>52</dim>
				</port>
				<port id="1">
					<dim>1</dim>
					<dim>80</dim>
					<dim>52</dim>
					<dim>52</dim>
				</port>
				<port id="2">
					<dim>1</dim>
					<dim>56</dim>
					<dim>52</dim>
					<dim>52</dim>
				</port>
				<port id="3">
					<dim>1</dim>
					<dim>64</dim>
					<dim>52</dim>
					<dim>52</dim>
				</port>
			</input>
			<output>
				<port id="4" precision="FP32" names="input.68">
					<dim>1</dim>
					<dim>272</dim>
					<dim>52</dim>
					<dim>52</dim>
				</port>
			</output>
		</layer>
		<layer id="322" name="Conv_64/WithoutBiases/fq_weights_1/scale1298918356" type="Const" version="opset1">
			<data offset="377540" size="1120" shape="280,1,1,1" element_type="f32"/>
			<output>
				<port id="0" precision="FP32">
					<dim>280</dim>
					<dim>1</dim>
					<dim>1</dim>
					<dim>1</dim>
				</port>
			</output>
		</layer>
		<layer id="323" name="model.24.conv.weight8319655/restored_convert/quantized1298118794" type="Const" version="opset1">
			<data offset="378660" size="76160" shape="280,272,1,1" element_type="i8"/>
			<output>
				<port id="0" precision="I8">
					<dim>280</dim>
					<dim>272</dim>
					<dim>1</dim>
					<dim>1</dim>
				</port>
			</output>
		</layer>
		<layer id="324" name="model.24.conv.weight8319655/restored_convert/quantized/to_f32" type="Convert" version="opset1">
			<data destination_type="f32"/>
			<input>
				<port id="0">
					<dim>280</dim>
					<dim>272</dim>
					<dim>1</dim>
					<dim>1</dim>
				</port>
			</input>
			<output>
				<port id="1" precision="FP32">
					<dim>280</dim>
					<dim>272</dim>
					<dim>1</dim>
					<dim>1</dim>
				</port>
			</output>
		</layer>
		<layer id="325" name="Conv_64/WithoutBiases/fq_weights_1/mulpiply_by_scale" type="Multiply" version="opset1">
			<data auto_broadcast="numpy"/>
			<input>
				<port id="0">
					<dim>280</dim>
					<dim>272</dim>
					<dim>1</dim>
					<dim>1</dim>
				</port>
				<port id="1">
					<dim>280</dim>
					<dim>1</dim>
					<dim>1</dim>
					<dim>1</dim>
				</port>
			</input>
			<output>
				<port id="2" precision="FP32">
					<dim>280</dim>
					<dim>272</dim>
					<dim>1</dim>
					<dim>1</dim>
				</port>
			</output>
		</layer>
		<layer id="326" name="Conv_64/WithoutBiases" type="Convolution" version="opset1">
			<data auto_pad="explicit" strides="1,1" dilations="1,1" pads_begin="0,0" pads_end="0,0"/>
			<input>
				<port id="0">
					<dim>1</dim>
					<dim>272</dim>
					<dim>52</dim>
					<dim>52</dim>
				</port>
				<port id="1">
					<dim>280</dim>
					<dim>272</dim>
					<dim>1</dim>
					<dim>1</dim>
				</port>
			</input>
			<output>
				<port id="2" precision="FP32">
					<dim>1</dim>
					<dim>280</dim>
					<dim>52</dim>
					<dim>52</dim>
				</port>
			</output>
		</layer>
		<layer id="327" name="Reshape_121183417189" type="Const" version="opset1">
			<data offset="454820" size="560" shape="1,280,1,1" element_type="f16"/>
			<output>
				<port id="0" precision="FP16">
					<dim>1</dim>
					<dim>280</dim>
					<dim>1</dim>
					<dim>1</dim>
				</port>
			</output>
		</layer>
		<layer id="328" name="Reshape_12118349656/restored_convert" type="Convert" version="opset1">
			<data destination_type="f32"/>
			<rt_info>
				<attribute name="decompression" version="0"/>
			</rt_info>
			<input>
				<port id="0">
					<dim>1</dim>
					<dim>280</dim>
					<dim>1</dim>
					<dim>1</dim>
				</port>
			</input>
			<output>
				<port id="1" precision="FP32">
					<dim>1</dim>
					<dim>280</dim>
					<dim>1</dim>
					<dim>1</dim>
				</port>
			</output>
		</layer>
		<layer id="329" name="Conv_64" type="Add" version="opset1">
			<data auto_broadcast="numpy"/>
			<input>
				<port id="0">
					<dim>1</dim>
					<dim>280</dim>
					<dim>52</dim>
					<dim>52</dim>
				</port>
				<port id="1">
					<dim>1</dim>
					<dim>280</dim>
					<dim>1</dim>
					<dim>1</dim>
				</port>
			</input>
			<output>
				<port id="2" precision="FP32" names="onnx::Sigmoid_257">
					<dim>1</dim>
					<dim>280</dim>
					<dim>52</dim>
					<dim>52</dim>
				</port>
			</output>
		</layer>
		<layer id="330" name="Mul_66" type="Swish" version="opset4">
			<input>
				<port id="0">
					<dim>1</dim>
					<dim>280</dim>
					<dim>52</dim>
					<dim>52</dim>
				</port>
			</input>
			<output>
				<port id="1" precision="FP32" names="input.72">
					<dim>1</dim>
					<dim>280</dim>
					<dim>52</dim>
					<dim>52</dim>
				</port>
			</output>
		</layer>
		<layer id="331" name="Conv_195/WithoutBiases/fq_input_0" type="FakeQuantize" version="opset1">
			<data levels="256" auto_broadcast="numpy"/>
			<input>
				<port id="0">
					<dim>1</dim>
					<dim>280</dim>
					<dim>52</dim>
					<dim>52</dim>
				</port>
				<port id="1">
					<dim>1</dim>
					<dim>1</dim>
					<dim>1</dim>
					<dim>1</dim>
				</port>
				<port id="2">
					<dim>1</dim>
					<dim>1</dim>
					<dim>1</dim>
					<dim>1</dim>
				</port>
				<port id="3">
					<dim>1</dim>
					<dim>1</dim>
					<dim>1</dim>
					<dim>1</dim>
				</port>
				<port id="4">
					<dim>1</dim>
					<dim>1</dim>
					<dim>1</dim>
					<dim>1</dim>
				</port>
			</input>
			<output>
				<port id="5" precision="FP32">
					<dim>1</dim>
					<dim>280</dim>
					<dim>52</dim>
					<dim>52</dim>
				</port>
			</output>
		</layer>
		<layer id="332" name="MaxPool_67" type="MaxPool" version="opset8">
			<data strides="2,2" kernel="2,2" pads_begin="0,0" pads_end="0,0" rounding_type="floor" auto_pad="explicit" dilations="1,1" axis="0" index_element_type="i64"/>
			<input>
				<port id="0">
					<dim>1</dim>
					<dim>280</dim>
					<dim>52</dim>
					<dim>52</dim>
				</port>
			</input>
			<output>
				<port id="1" precision="FP32" names="input.76">
					<dim>1</dim>
					<dim>280</dim>
					<dim>26</dim>
					<dim>26</dim>
				</port>
				<port id="2" precision="FP32">
					<dim>1</dim>
					<dim>280</dim>
					<dim>26</dim>
					<dim>26</dim>
					<rt_info/>
				</port>
			</output>
		</layer>
		<layer id="333" name="Conv_68/WithoutBiases/fq_weights_1/scale1127917207" type="Const" version="opset1">
			<data offset="455380" size="480" shape="120,1,1,1" element_type="f32"/>
			<output>
				<port id="0" precision="FP32">
					<dim>120</dim>
					<dim>1</dim>
					<dim>1</dim>
					<dim>1</dim>
				</port>
			</output>
		</layer>
		<layer id="334" name="model.26.conv.weight8609663/restored_convert/quantized1127118575" type="Const" version="opset1">
			<data offset="455860" size="33600" shape="120,280,1,1" element_type="i8"/>
			<output>
				<port id="0" precision="I8">
					<dim>120</dim>
					<dim>280</dim>
					<dim>1</dim>
					<dim>1</dim>
				</port>
			</output>
		</layer>
		<layer id="335" name="model.26.conv.weight8609663/restored_convert/quantized/to_f32" type="Convert" version="opset1">
			<data destination_type="f32"/>
			<input>
				<port id="0">
					<dim>120</dim>
					<dim>280</dim>
					<dim>1</dim>
					<dim>1</dim>
				</port>
			</input>
			<output>
				<port id="1" precision="FP32">
					<dim>120</dim>
					<dim>280</dim>
					<dim>1</dim>
					<dim>1</dim>
				</port>
			</output>
		</layer>
		<layer id="336" name="Conv_68/WithoutBiases/fq_weights_1/mulpiply_by_scale" type="Multiply" version="opset1">
			<data auto_broadcast="numpy"/>
			<input>
				<port id="0">
					<dim>120</dim>
					<dim>280</dim>
					<dim>1</dim>
					<dim>1</dim>
				</port>
				<port id="1">
					<dim>120</dim>
					<dim>1</dim>
					<dim>1</dim>
					<dim>1</dim>
				</port>
			</input>
			<output>
				<port id="2" precision="FP32">
					<dim>120</dim>
					<dim>280</dim>
					<dim>1</dim>
					<dim>1</dim>
				</port>
			</output>
		</layer>
		<layer id="337" name="Conv_68/WithoutBiases" type="Convolution" version="opset1">
			<data auto_pad="explicit" strides="1,1" dilations="1,1" pads_begin="0,0" pads_end="0,0"/>
			<input>
				<port id="0">
					<dim>1</dim>
					<dim>280</dim>
					<dim>26</dim>
					<dim>26</dim>
				</port>
				<port id="1">
					<dim>120</dim>
					<dim>280</dim>
					<dim>1</dim>
					<dim>1</dim>
				</port>
			</input>
			<output>
				<port id="2" precision="FP32">
					<dim>1</dim>
					<dim>120</dim>
					<dim>26</dim>
					<dim>26</dim>
				</port>
			</output>
		</layer>
		<layer id="338" name="Reshape_126286317699" type="Const" version="opset1">
			<data offset="489460" size="240" shape="1,120,1,1" element_type="f16"/>
			<output>
				<port id="0" precision="FP16">
					<dim>1</dim>
					<dim>120</dim>
					<dim>1</dim>
					<dim>1</dim>
				</port>
			</output>
		</layer>
		<layer id="339" name="Reshape_12628639664/restored_convert" type="Convert" version="opset1">
			<data destination_type="f32"/>
			<rt_info>
				<attribute name="decompression" version="0"/>
			</rt_info>
			<input>
				<port id="0">
					<dim>1</dim>
					<dim>120</dim>
					<dim>1</dim>
					<dim>1</dim>
				</port>
			</input>
			<output>
				<port id="1" precision="FP32">
					<dim>1</dim>
					<dim>120</dim>
					<dim>1</dim>
					<dim>1</dim>
				</port>
			</output>
		</layer>
		<layer id="340" name="Conv_68" type="Add" version="opset1">
			<data auto_broadcast="numpy"/>
			<input>
				<port id="0">
					<dim>1</dim>
					<dim>120</dim>
					<dim>26</dim>
					<dim>26</dim>
				</port>
				<port id="1">
					<dim>1</dim>
					<dim>120</dim>
					<dim>1</dim>
					<dim>1</dim>
				</port>
			</input>
			<output>
				<port id="2" precision="FP32" names="onnx::Sigmoid_261">
					<dim>1</dim>
					<dim>120</dim>
					<dim>26</dim>
					<dim>26</dim>
				</port>
			</output>
		</layer>
		<layer id="341" name="Mul_70" type="Swish" version="opset4">
			<input>
				<port id="0">
					<dim>1</dim>
					<dim>120</dim>
					<dim>26</dim>
					<dim>26</dim>
				</port>
			</input>
			<output>
				<port id="1" precision="FP32" names="onnx::Concat_263">
					<dim>1</dim>
					<dim>120</dim>
					<dim>26</dim>
					<dim>26</dim>
				</port>
			</output>
		</layer>
		<layer id="342" name="Concat_77/fq_input_1" type="FakeQuantize" version="opset1">
			<data levels="256" auto_broadcast="numpy"/>
			<input>
				<port id="0">
					<dim>1</dim>
					<dim>120</dim>
					<dim>26</dim>
					<dim>26</dim>
				</port>
				<port id="1">
					<dim>1</dim>
					<dim>1</dim>
					<dim>1</dim>
					<dim>1</dim>
				</port>
				<port id="2">
					<dim>1</dim>
					<dim>1</dim>
					<dim>1</dim>
					<dim>1</dim>
				</port>
				<port id="3">
					<dim>1</dim>
					<dim>1</dim>
					<dim>1</dim>
					<dim>1</dim>
				</port>
				<port id="4">
					<dim>1</dim>
					<dim>1</dim>
					<dim>1</dim>
					<dim>1</dim>
				</port>
			</input>
			<output>
				<port id="5" precision="FP32">
					<dim>1</dim>
					<dim>120</dim>
					<dim>26</dim>
					<dim>26</dim>
				</port>
			</output>
		</layer>
		<layer id="343" name="5692569617744" type="Const" version="opset1">
			<data offset="32" size="4" shape="1,1,1,1" element_type="f32"/>
			<output>
				<port id="0" precision="FP32">
					<dim>1</dim>
					<dim>1</dim>
					<dim>1</dim>
					<dim>1</dim>
				</port>
			</output>
		</layer>
		<layer id="344" name="5693569718284" type="Const" version="opset1">
			<data offset="36" size="4" shape="1,1,1,1" element_type="f32"/>
			<output>
				<port id="0" precision="FP32">
					<dim>1</dim>
					<dim>1</dim>
					<dim>1</dim>
					<dim>1</dim>
				</port>
			</output>
		</layer>
		<layer id="345" name="5694569818653" type="Const" version="opset1">
			<data offset="32" size="4" shape="1,1,1,1" element_type="f32"/>
			<output>
				<port id="0" precision="FP32">
					<dim>1</dim>
					<dim>1</dim>
					<dim>1</dim>
					<dim>1</dim>
				</port>
			</output>
		</layer>
		<layer id="346" name="5695569918497" type="Const" version="opset1">
			<data offset="36" size="4" shape="1,1,1,1" element_type="f32"/>
			<output>
				<port id="0" precision="FP32">
					<dim>1</dim>
					<dim>1</dim>
					<dim>1</dim>
					<dim>1</dim>
				</port>
			</output>
		</layer>
		<layer id="347" name="3513351718788" type="Const" version="opset1">
			<data offset="0" size="4" shape="1,1,1,1" element_type="f32"/>
			<output>
				<port id="0" precision="FP32">
					<dim>1</dim>
					<dim>1</dim>
					<dim>1</dim>
					<dim>1</dim>
				</port>
			</output>
		</layer>
		<layer id="348" name="3514351817768" type="Const" version="opset1">
			<data offset="4" size="4" shape="1,1,1,1" element_type="f32"/>
			<output>
				<port id="0" precision="FP32">
					<dim>1</dim>
					<dim>1</dim>
					<dim>1</dim>
					<dim>1</dim>
				</port>
			</output>
		</layer>
		<layer id="349" name="3515351917888" type="Const" version="opset1">
			<data offset="0" size="4" shape="1,1,1,1" element_type="f32"/>
			<output>
				<port id="0" precision="FP32">
					<dim>1</dim>
					<dim>1</dim>
					<dim>1</dim>
					<dim>1</dim>
				</port>
			</output>
		</layer>
		<layer id="350" name="3516352017468" type="Const" version="opset1">
			<data offset="4" size="4" shape="1,1,1,1" element_type="f32"/>
			<output>
				<port id="0" precision="FP32">
					<dim>1</dim>
					<dim>1</dim>
					<dim>1</dim>
					<dim>1</dim>
				</port>
			</output>
		</layer>
		<layer id="351" name="Conv_71/WithoutBiases/fq_weights_1/scale1364918524" type="Const" version="opset1">
			<data offset="489700" size="544" shape="136,1,1,1" element_type="f32"/>
			<output>
				<port id="0" precision="FP32">
					<dim>136</dim>
					<dim>1</dim>
					<dim>1</dim>
					<dim>1</dim>
				</port>
			</output>
		</layer>
		<layer id="352" name="model.27.conv.weight8459659/restored_convert/quantized1364117090" type="Const" version="opset1">
			<data offset="490244" size="38080" shape="136,280,1,1" element_type="i8"/>
			<output>
				<port id="0" precision="I8">
					<dim>136</dim>
					<dim>280</dim>
					<dim>1</dim>
					<dim>1</dim>
				</port>
			</output>
		</layer>
		<layer id="353" name="model.27.conv.weight8459659/restored_convert/quantized/to_f32" type="Convert" version="opset1">
			<data destination_type="f32"/>
			<input>
				<port id="0">
					<dim>136</dim>
					<dim>280</dim>
					<dim>1</dim>
					<dim>1</dim>
				</port>
			</input>
			<output>
				<port id="1" precision="FP32">
					<dim>136</dim>
					<dim>280</dim>
					<dim>1</dim>
					<dim>1</dim>
				</port>
			</output>
		</layer>
		<layer id="354" name="Conv_71/WithoutBiases/fq_weights_1/mulpiply_by_scale" type="Multiply" version="opset1">
			<data auto_broadcast="numpy"/>
			<input>
				<port id="0">
					<dim>136</dim>
					<dim>280</dim>
					<dim>1</dim>
					<dim>1</dim>
				</port>
				<port id="1">
					<dim>136</dim>
					<dim>1</dim>
					<dim>1</dim>
					<dim>1</dim>
				</port>
			</input>
			<output>
				<port id="2" precision="FP32">
					<dim>136</dim>
					<dim>280</dim>
					<dim>1</dim>
					<dim>1</dim>
				</port>
			</output>
		</layer>
		<layer id="355" name="Conv_71/WithoutBiases" type="Convolution" version="opset1">
			<data auto_pad="explicit" strides="1,1" dilations="1,1" pads_begin="0,0" pads_end="0,0"/>
			<input>
				<port id="0">
					<dim>1</dim>
					<dim>280</dim>
					<dim>52</dim>
					<dim>52</dim>
				</port>
				<port id="1">
					<dim>136</dim>
					<dim>280</dim>
					<dim>1</dim>
					<dim>1</dim>
				</port>
			</input>
			<output>
				<port id="2" precision="FP32">
					<dim>1</dim>
					<dim>136</dim>
					<dim>52</dim>
					<dim>52</dim>
				</port>
			</output>
		</layer>
		<layer id="356" name="Reshape_131284817579" type="Const" version="opset1">
			<data offset="528324" size="272" shape="1,136,1,1" element_type="f16"/>
			<output>
				<port id="0" precision="FP16">
					<dim>1</dim>
					<dim>136</dim>
					<dim>1</dim>
					<dim>1</dim>
				</port>
			</output>
		</layer>
		<layer id="357" name="Reshape_13128489660/restored_convert" type="Convert" version="opset1">
			<data destination_type="f32"/>
			<rt_info>
				<attribute name="decompression" version="0"/>
			</rt_info>
			<input>
				<port id="0">
					<dim>1</dim>
					<dim>136</dim>
					<dim>1</dim>
					<dim>1</dim>
				</port>
			</input>
			<output>
				<port id="1" precision="FP32">
					<dim>1</dim>
					<dim>136</dim>
					<dim>1</dim>
					<dim>1</dim>
				</port>
			</output>
		</layer>
		<layer id="358" name="Conv_71" type="Add" version="opset1">
			<data auto_broadcast="numpy"/>
			<input>
				<port id="0">
					<dim>1</dim>
					<dim>136</dim>
					<dim>52</dim>
					<dim>52</dim>
				</port>
				<port id="1">
					<dim>1</dim>
					<dim>136</dim>
					<dim>1</dim>
					<dim>1</dim>
				</port>
			</input>
			<output>
				<port id="2" precision="FP32" names="onnx::Sigmoid_264">
					<dim>1</dim>
					<dim>136</dim>
					<dim>52</dim>
					<dim>52</dim>
				</port>
			</output>
		</layer>
		<layer id="359" name="Mul_73" type="Swish" version="opset4">
			<input>
				<port id="0">
					<dim>1</dim>
					<dim>136</dim>
					<dim>52</dim>
					<dim>52</dim>
				</port>
			</input>
			<output>
				<port id="1" precision="FP32" names="input.80">
					<dim>1</dim>
					<dim>136</dim>
					<dim>52</dim>
					<dim>52</dim>
				</port>
			</output>
		</layer>
		<layer id="360" name="Conv_74/WithoutBiases/fq_input_0" type="FakeQuantize" version="opset1">
			<data levels="256" auto_broadcast="numpy"/>
			<input>
				<port id="0">
					<dim>1</dim>
					<dim>136</dim>
					<dim>52</dim>
					<dim>52</dim>
				</port>
				<port id="1">
					<dim>1</dim>
					<dim>1</dim>
					<dim>1</dim>
					<dim>1</dim>
				</port>
				<port id="2">
					<dim>1</dim>
					<dim>1</dim>
					<dim>1</dim>
					<dim>1</dim>
				</port>
				<port id="3">
					<dim>1</dim>
					<dim>1</dim>
					<dim>1</dim>
					<dim>1</dim>
				</port>
				<port id="4">
					<dim>1</dim>
					<dim>1</dim>
					<dim>1</dim>
					<dim>1</dim>
				</port>
			</input>
			<output>
				<port id="5" precision="FP32">
					<dim>1</dim>
					<dim>136</dim>
					<dim>52</dim>
					<dim>52</dim>
				</port>
			</output>
		</layer>
		<layer id="361" name="Conv_74/WithoutBiases/fq_weights_1/scale1331917276" type="Const" version="opset1">
			<data offset="528596" size="544" shape="136,1,1,1" element_type="f32"/>
			<output>
…
		<edge from-layer="721" from-port="2" to-layer="722" to-port="0"/>
		<edge from-layer="722" from-port="1" to-layer="723" to-port="0"/>
		<edge from-layer="522" from-port="0" to-layer="723" to-port="1"/>
		<edge from-layer="523" from-port="0" to-layer="723" to-port="2"/>
		<edge from-layer="524" from-port="0" to-layer="723" to-port="3"/>
		<edge from-layer="525" from-port="0" to-layer="723" to-port="4"/>
		<edge from-layer="725" from-port="0" to-layer="726" to-port="0"/>
		<edge from-layer="726" from-port="1" to-layer="727" to-port="0"/>
		<edge from-layer="724" from-port="0" to-layer="727" to-port="1"/>
		<edge from-layer="723" from-port="5" to-layer="728" to-port="0"/>
		<edge from-layer="727" from-port="2" to-layer="728" to-port="1"/>
		<edge from-layer="729" from-port="0" to-layer="730" to-port="0"/>
		<edge from-layer="728" from-port="2" to-layer="731" to-port="0"/>
		<edge from-layer="730" from-port="1" to-layer="731" to-port="1"/>
		<edge from-layer="731" from-port="2" to-layer="732" to-port="0"/>
		<edge from-layer="732" from-port="1" to-layer="733" to-port="0"/>
		<edge from-layer="518" from-port="0" to-layer="733" to-port="1"/>
		<edge from-layer="519" from-port="0" to-layer="733" to-port="2"/>
		<edge from-layer="520" from-port="0" to-layer="733" to-port="3"/>
		<edge from-layer="521" from-port="0" to-layer="733" to-port="4"/>
		<edge from-layer="739" from-port="0" to-layer="740" to-port="0"/>
		<edge from-layer="740" from-port="1" to-layer="741" to-port="0"/>
		<edge from-layer="738" from-port="0" to-layer="741" to-port="1"/>
		<edge from-layer="679" from-port="5" to-layer="742" to-port="0"/>
		<edge from-layer="741" from-port="2" to-layer="742" to-port="1"/>
		<edge from-layer="743" from-port="0" to-layer="744" to-port="0"/>
		<edge from-layer="742" from-port="2" to-layer="745" to-port="0"/>
		<edge from-layer="744" from-port="1" to-layer="745" to-port="1"/>
		<edge from-layer="745" from-port="2" to-layer="746" to-port="0"/>
		<edge from-layer="746" from-port="1" to-layer="747" to-port="0"/>
		<edge from-layer="734" from-port="0" to-layer="747" to-port="1"/>
		<edge from-layer="735" from-port="0" to-layer="747" to-port="2"/>
		<edge from-layer="736" from-port="0" to-layer="747" to-port="3"/>
		<edge from-layer="737" from-port="0" to-layer="747" to-port="4"/>
		<edge from-layer="733" from-port="5" to-layer="748" to-port="0"/>
		<edge from-layer="747" from-port="5" to-layer="748" to-port="1"/>
		<edge from-layer="750" from-port="0" to-layer="751" to-port="0"/>
		<edge from-layer="751" from-port="1" to-layer="752" to-port="0"/>
		<edge from-layer="749" from-port="0" to-layer="752" to-port="1"/>
		<edge from-layer="748" from-port="2" to-layer="753" to-port="0"/>
		<edge from-layer="752" from-port="2" to-layer="753" to-port="1"/>
		<edge from-layer="754" from-port="0" to-layer="755" to-port="0"/>
		<edge from-layer="753" from-port="2" to-layer="756" to-port="0"/>
		<edge from-layer="755" from-port="1" to-layer="756" to-port="1"/>
		<edge from-layer="756" from-port="2" to-layer="757" to-port="0"/>
		<edge from-layer="757" from-port="1" to-layer="758" to-port="0"/>
		<edge from-layer="514" from-port="0" to-layer="758" to-port="1"/>
		<edge from-layer="515" from-port="0" to-layer="758" to-port="2"/>
		<edge from-layer="516" from-port="0" to-layer="758" to-port="3"/>
		<edge from-layer="517" from-port="0" to-layer="758" to-port="4"/>
		<edge from-layer="760" from-port="0" to-layer="761" to-port="0"/>
		<edge from-layer="761" from-port="1" to-layer="762" to-port="0"/>
		<edge from-layer="759" from-port="0" to-layer="762" to-port="1"/>
		<edge from-layer="758" from-port="5" to-layer="763" to-port="0"/>
		<edge from-layer="762" from-port="2" to-layer="763" to-port="1"/>
		<edge from-layer="764" from-port="0" to-layer="765" to-port="0"/>
		<edge from-layer="763" from-port="2" to-layer="766" to-port="0"/>
		<edge from-layer="765" from-port="1" to-layer="766" to-port="1"/>
		<edge from-layer="766" from-port="2" to-layer="767" to-port="0"/>
		<edge from-layer="767" from-port="1" to-layer="768" to-port="0"/>
		<edge from-layer="510" from-port="0" to-layer="768" to-port="1"/>
		<edge from-layer="511" from-port="0" to-layer="768" to-port="2"/>
		<edge from-layer="512" from-port="0" to-layer="768" to-port="3"/>
		<edge from-layer="513" from-port="0" to-layer="768" to-port="4"/>
		<edge from-layer="767" from-port="1" to-layer="769" to-port="0"/>
		<edge from-layer="769" from-port="1" to-layer="770" to-port="0"/>
		<edge from-layer="770" from-port="1" to-layer="771" to-port="0"/>
		<edge from-layer="477" from-port="0" to-layer="771" to-port="1"/>
		<edge from-layer="771" from-port="2" to-layer="772" to-port="0"/>
		<edge from-layer="768" from-port="5" to-layer="773" to-port="0"/>
		<edge from-layer="772" from-port="1" to-layer="773" to-port="1"/>
		<edge from-layer="477" from-port="0" to-layer="773" to-port="2"/>
		<edge from-layer="773" from-port="3" to-layer="774" to-port="0"/>
		<edge from-layer="506" from-port="0" to-layer="774" to-port="1"/>
		<edge from-layer="507" from-port="0" to-layer="774" to-port="2"/>
		<edge from-layer="508" from-port="0" to-layer="774" to-port="3"/>
		<edge from-layer="509" from-port="0" to-layer="774" to-port="4"/>
		<edge from-layer="780" from-port="0" to-layer="781" to-port="0"/>
		<edge from-layer="781" from-port="1" to-layer="782" to-port="0"/>
		<edge from-layer="779" from-port="0" to-layer="782" to-port="1"/>
		<edge from-layer="446" from-port="5" to-layer="783" to-port="0"/>
		<edge from-layer="782" from-port="2" to-layer="783" to-port="1"/>
		<edge from-layer="784" from-port="0" to-layer="785" to-port="0"/>
		<edge from-layer="783" from-port="2" to-layer="786" to-port="0"/>
		<edge from-layer="785" from-port="1" to-layer="786" to-port="1"/>
		<edge from-layer="786" from-port="2" to-layer="787" to-port="0"/>
		<edge from-layer="787" from-port="1" to-layer="788" to-port="0"/>
		<edge from-layer="775" from-port="0" to-layer="788" to-port="1"/>
		<edge from-layer="776" from-port="0" to-layer="788" to-port="2"/>
		<edge from-layer="777" from-port="0" to-layer="788" to-port="3"/>
		<edge from-layer="778" from-port="0" to-layer="788" to-port="4"/>
		<edge from-layer="788" from-port="5" to-layer="789" to-port="0"/>
		<edge from-layer="774" from-port="5" to-layer="789" to-port="1"/>
		<edge from-layer="791" from-port="0" to-layer="792" to-port="0"/>
		<edge from-layer="792" from-port="1" to-layer="793" to-port="0"/>
		<edge from-layer="790" from-port="0" to-layer="793" to-port="1"/>
		<edge from-layer="789" from-port="2" to-layer="794" to-port="0"/>
		<edge from-layer="793" from-port="2" to-layer="794" to-port="1"/>
		<edge from-layer="795" from-port="0" to-layer="796" to-port="0"/>
		<edge from-layer="794" from-port="2" to-layer="797" to-port="0"/>
		<edge from-layer="796" from-port="1" to-layer="797" to-port="1"/>
		<edge from-layer="797" from-port="2" to-layer="798" to-port="0"/>
		<edge from-layer="798" from-port="1" to-layer="799" to-port="0"/>
		<edge from-layer="502" from-port="0" to-layer="799" to-port="1"/>
		<edge from-layer="503" from-port="0" to-layer="799" to-port="2"/>
		<edge from-layer="504" from-port="0" to-layer="799" to-port="3"/>
		<edge from-layer="505" from-port="0" to-layer="799" to-port="4"/>
		<edge from-layer="801" from-port="0" to-layer="802" to-port="0"/>
		<edge from-layer="802" from-port="1" to-layer="803" to-port="0"/>
		<edge from-layer="800" from-port="0" to-layer="803" to-port="1"/>
		<edge from-layer="799" from-port="5" to-layer="804" to-port="0"/>
		<edge from-layer="803" from-port="2" to-layer="804" to-port="1"/>
		<edge from-layer="805" from-port="0" to-layer="806" to-port="0"/>
		<edge from-layer="804" from-port="2" to-layer="807" to-port="0"/>
		<edge from-layer="806" from-port="1" to-layer="807" to-port="1"/>
		<edge from-layer="807" from-port="2" to-layer="808" to-port="0"/>
		<edge from-layer="808" from-port="1" to-layer="809" to-port="0"/>
		<edge from-layer="498" from-port="0" to-layer="809" to-port="1"/>
		<edge from-layer="499" from-port="0" to-layer="809" to-port="2"/>
		<edge from-layer="500" from-port="0" to-layer="809" to-port="3"/>
		<edge from-layer="501" from-port="0" to-layer="809" to-port="4"/>
		<edge from-layer="811" from-port="0" to-layer="812" to-port="0"/>
		<edge from-layer="812" from-port="1" to-layer="813" to-port="0"/>
		<edge from-layer="810" from-port="0" to-layer="813" to-port="1"/>
		<edge from-layer="809" from-port="5" to-layer="814" to-port="0"/>
		<edge from-layer="813" from-port="2" to-layer="814" to-port="1"/>
		<edge from-layer="815" from-port="0" to-layer="816" to-port="0"/>
		<edge from-layer="814" from-port="2" to-layer="817" to-port="0"/>
		<edge from-layer="816" from-port="1" to-layer="817" to-port="1"/>
		<edge from-layer="817" from-port="2" to-layer="818" to-port="0"/>
		<edge from-layer="818" from-port="1" to-layer="819" to-port="0"/>
		<edge from-layer="494" from-port="0" to-layer="819" to-port="1"/>
		<edge from-layer="495" from-port="0" to-layer="819" to-port="2"/>
		<edge from-layer="496" from-port="0" to-layer="819" to-port="3"/>
		<edge from-layer="497" from-port="0" to-layer="819" to-port="4"/>
		<edge from-layer="821" from-port="0" to-layer="822" to-port="0"/>
		<edge from-layer="822" from-port="1" to-layer="823" to-port="0"/>
		<edge from-layer="820" from-port="0" to-layer="823" to-port="1"/>
		<edge from-layer="819" from-port="5" to-layer="824" to-port="0"/>
		<edge from-layer="823" from-port="2" to-layer="824" to-port="1"/>
		<edge from-layer="825" from-port="0" to-layer="826" to-port="0"/>
		<edge from-layer="824" from-port="2" to-layer="827" to-port="0"/>
		<edge from-layer="826" from-port="1" to-layer="827" to-port="1"/>
		<edge from-layer="827" from-port="2" to-layer="828" to-port="0"/>
		<edge from-layer="828" from-port="1" to-layer="829" to-port="0"/>
		<edge from-layer="490" from-port="0" to-layer="829" to-port="1"/>
		<edge from-layer="491" from-port="0" to-layer="829" to-port="2"/>
		<edge from-layer="492" from-port="0" to-layer="829" to-port="3"/>
		<edge from-layer="493" from-port="0" to-layer="829" to-port="4"/>
		<edge from-layer="831" from-port="0" to-layer="832" to-port="0"/>
		<edge from-layer="832" from-port="1" to-layer="833" to-port="0"/>
		<edge from-layer="830" from-port="0" to-layer="833" to-port="1"/>
		<edge from-layer="829" from-port="5" to-layer="834" to-port="0"/>
		<edge from-layer="833" from-port="2" to-layer="834" to-port="1"/>
		<edge from-layer="835" from-port="0" to-layer="836" to-port="0"/>
		<edge from-layer="834" from-port="2" to-layer="837" to-port="0"/>
		<edge from-layer="836" from-port="1" to-layer="837" to-port="1"/>
		<edge from-layer="837" from-port="2" to-layer="838" to-port="0"/>
		<edge from-layer="838" from-port="1" to-layer="839" to-port="0"/>
		<edge from-layer="486" from-port="0" to-layer="839" to-port="1"/>
		<edge from-layer="487" from-port="0" to-layer="839" to-port="2"/>
		<edge from-layer="488" from-port="0" to-layer="839" to-port="3"/>
		<edge from-layer="489" from-port="0" to-layer="839" to-port="4"/>
		<edge from-layer="845" from-port="0" to-layer="846" to-port="0"/>
		<edge from-layer="846" from-port="1" to-layer="847" to-port="0"/>
		<edge from-layer="844" from-port="0" to-layer="847" to-port="1"/>
		<edge from-layer="789" from-port="2" to-layer="848" to-port="0"/>
		<edge from-layer="847" from-port="2" to-layer="848" to-port="1"/>
		<edge from-layer="849" from-port="0" to-layer="850" to-port="0"/>
		<edge from-layer="848" from-port="2" to-layer="851" to-port="0"/>
		<edge from-layer="850" from-port="1" to-layer="851" to-port="1"/>
		<edge from-layer="851" from-port="2" to-layer="852" to-port="0"/>
		<edge from-layer="852" from-port="1" to-layer="853" to-port="0"/>
		<edge from-layer="840" from-port="0" to-layer="853" to-port="1"/>
		<edge from-layer="841" from-port="0" to-layer="853" to-port="2"/>
		<edge from-layer="842" from-port="0" to-layer="853" to-port="3"/>
		<edge from-layer="843" from-port="0" to-layer="853" to-port="4"/>
		<edge from-layer="839" from-port="5" to-layer="854" to-port="0"/>
		<edge from-layer="829" from-port="5" to-layer="854" to-port="1"/>
		<edge from-layer="819" from-port="5" to-layer="854" to-port="2"/>
		<edge from-layer="809" from-port="5" to-layer="854" to-port="3"/>
		<edge from-layer="799" from-port="5" to-layer="854" to-port="4"/>
		<edge from-layer="853" from-port="5" to-layer="854" to-port="5"/>
		<edge from-layer="856" from-port="0" to-layer="857" to-port="0"/>
		<edge from-layer="857" from-port="1" to-layer="858" to-port="0"/>
		<edge from-layer="855" from-port="0" to-layer="858" to-port="1"/>
		<edge from-layer="854" from-port="6" to-layer="859" to-port="0"/>
		<edge from-layer="858" from-port="2" to-layer="859" to-port="1"/>
		<edge from-layer="860" from-port="0" to-layer="861" to-port="0"/>
		<edge from-layer="859" from-port="2" to-layer="862" to-port="0"/>
		<edge from-layer="861" from-port="1" to-layer="862" to-port="1"/>
		<edge from-layer="862" from-port="2" to-layer="863" to-port="0"/>
		<edge from-layer="863" from-port="1" to-layer="864" to-port="0"/>
		<edge from-layer="482" from-port="0" to-layer="864" to-port="1"/>
		<edge from-layer="483" from-port="0" to-layer="864" to-port="2"/>
		<edge from-layer="484" from-port="0" to-layer="864" to-port="3"/>
		<edge from-layer="485" from-port="0" to-layer="864" to-port="4"/>
		<edge from-layer="866" from-port="0" to-layer="867" to-port="0"/>
		<edge from-layer="867" from-port="1" to-layer="868" to-port="0"/>
		<edge from-layer="865" from-port="0" to-layer="868" to-port="1"/>
		<edge from-layer="864" from-port="5" to-layer="869" to-port="0"/>
		<edge from-layer="868" from-port="2" to-layer="869" to-port="1"/>
		<edge from-layer="870" from-port="0" to-layer="871" to-port="0"/>
		<edge from-layer="869" from-port="2" to-layer="872" to-port="0"/>
		<edge from-layer="871" from-port="1" to-layer="872" to-port="1"/>
		<edge from-layer="872" from-port="2" to-layer="873" to-port="0"/>
		<edge from-layer="873" from-port="1" to-layer="874" to-port="0"/>
		<edge from-layer="478" from-port="0" to-layer="874" to-port="1"/>
		<edge from-layer="479" from-port="0" to-layer="874" to-port="2"/>
		<edge from-layer="480" from-port="0" to-layer="874" to-port="3"/>
		<edge from-layer="481" from-port="0" to-layer="874" to-port="4"/>
		<edge from-layer="873" from-port="1" to-layer="875" to-port="0"/>
		<edge from-layer="875" from-port="1" to-layer="876" to-port="0"/>
		<edge from-layer="876" from-port="1" to-layer="877" to-port="0"/>
		<edge from-layer="477" from-port="0" to-layer="877" to-port="1"/>
		<edge from-layer="877" from-port="2" to-layer="878" to-port="0"/>
		<edge from-layer="874" from-port="5" to-layer="879" to-port="0"/>
		<edge from-layer="878" from-port="1" to-layer="879" to-port="1"/>
		<edge from-layer="477" from-port="0" to-layer="879" to-port="2"/>
		<edge from-layer="879" from-port="3" to-layer="880" to-port="0"/>
		<edge from-layer="473" from-port="0" to-layer="880" to-port="1"/>
		<edge from-layer="474" from-port="0" to-layer="880" to-port="2"/>
		<edge from-layer="475" from-port="0" to-layer="880" to-port="3"/>
		<edge from-layer="476" from-port="0" to-layer="880" to-port="4"/>
		<edge from-layer="886" from-port="0" to-layer="887" to-port="0"/>
		<edge from-layer="887" from-port="1" to-layer="888" to-port="0"/>
		<edge from-layer="885" from-port="0" to-layer="888" to-port="1"/>
		<edge from-layer="331" from-port="5" to-layer="889" to-port="0"/>
		<edge from-layer="888" from-port="2" to-layer="889" to-port="1"/>
		<edge from-layer="890" from-port="0" to-layer="891" to-port="0"/>
		<edge from-layer="889" from-port="2" to-layer="892" to-port="0"/>
		<edge from-layer="891" from-port="1" to-layer="892" to-port="1"/>
		<edge from-layer="892" from-port="2" to-layer="893" to-port="0"/>
		<edge from-layer="893" from-port="1" to-layer="894" to-port="0"/>
		<edge from-layer="881" from-port="0" to-layer="894" to-port="1"/>
		<edge from-layer="882" from-port="0" to-layer="894" to-port="2"/>
		<edge from-layer="883" from-port="0" to-layer="894" to-port="3"/>
		<edge from-layer="884" from-port="0" to-layer="894" to-port="4"/>
		<edge from-layer="894" from-port="5" to-layer="895" to-port="0"/>
		<edge from-layer="880" from-port="5" to-layer="895" to-port="1"/>
		<edge from-layer="897" from-port="0" to-layer="898" to-port="0"/>
		<edge from-layer="898" from-port="1" to-layer="899" to-port="0"/>
		<edge from-layer="896" from-port="0" to-layer="899" to-port="1"/>
		<edge from-layer="895" from-port="2" to-layer="900" to-port="0"/>
		<edge from-layer="899" from-port="2" to-layer="900" to-port="1"/>
		<edge from-layer="901" from-port="0" to-layer="902" to-port="0"/>
		<edge from-layer="900" from-port="2" to-layer="903" to-port="0"/>
		<edge from-layer="902" from-port="1" to-layer="903" to-port="1"/>
		<edge from-layer="903" from-port="2" to-layer="904" to-port="0"/>
		<edge from-layer="904" from-port="1" to-layer="905" to-port="0"/>
		<edge from-layer="469" from-port="0" to-layer="905" to-port="1"/>
		<edge from-layer="470" from-port="0" to-layer="905" to-port="2"/>
		<edge from-layer="471" from-port="0" to-layer="905" to-port="3"/>
		<edge from-layer="472" from-port="0" to-layer="905" to-port="4"/>
		<edge from-layer="907" from-port="0" to-layer="908" to-port="0"/>
		<edge from-layer="908" from-port="1" to-layer="909" to-port="0"/>
		<edge from-layer="906" from-port="0" to-layer="909" to-port="1"/>
		<edge from-layer="905" from-port="5" to-layer="910" to-port="0"/>
		<edge from-layer="909" from-port="2" to-layer="910" to-port="1"/>
		<edge from-layer="911" from-port="0" to-layer="912" to-port="0"/>
		<edge from-layer="910" from-port="2" to-layer="913" to-port="0"/>
		<edge from-layer="912" from-port="1" to-layer="913" to-port="1"/>
		<edge from-layer="913" from-port="2" to-layer="914" to-port="0"/>
		<edge from-layer="914" from-port="1" to-layer="915" to-port="0"/>
		<edge from-layer="465" from-port="0" to-layer="915" to-port="1"/>
		<edge from-layer="466" from-port="0" to-layer="915" to-port="2"/>
		<edge from-layer="467" from-port="0" to-layer="915" to-port="3"/>
		<edge from-layer="468" from-port="0" to-layer="915" to-port="4"/>
		<edge from-layer="917" from-port="0" to-layer="918" to-port="0"/>
		<edge from-layer="918" from-port="1" to-layer="919" to-port="0"/>
		<edge from-layer="916" from-port="0" to-layer="919" to-port="1"/>
		<edge from-layer="915" from-port="5" to-layer="920" to-port="0"/>
		<edge from-layer="919" from-port="2" to-layer="920" to-port="1"/>
		<edge from-layer="921" from-port="0" to-layer="922" to-port="0"/>
		<edge from-layer="920" from-port="2" to-layer="923" to-port="0"/>
		<edge from-layer="922" from-port="1" to-layer="923" to-port="1"/>
		<edge from-layer="923" from-port="2" to-layer="924" to-port="0"/>
		<edge from-layer="924" from-port="1" to-layer="925" to-port="0"/>
		<edge from-layer="461" from-port="0" to-layer="925" to-port="1"/>
		<edge from-layer="462" from-port="0" to-layer="925" to-port="2"/>
		<edge from-layer="463" from-port="0" to-layer="925" to-port="3"/>
		<edge from-layer="464" from-port="0" to-layer="925" to-port="4"/>
		<edge from-layer="927" from-port="0" to-layer="928" to-port="0"/>
		<edge from-layer="928" from-port="1" to-layer="929" to-port="0"/>
		<edge from-layer="926" from-port="0" to-layer="929" to-port="1"/>
		<edge from-layer="925" from-port="5" to-layer="930" to-port="0"/>
		<edge from-layer="929" from-port="2" to-layer="930" to-port="1"/>
		<edge from-layer="931" from-port="0" to-layer="932" to-port="0"/>
		<edge from-layer="930" from-port="2" to-layer="933" to-port="0"/>
		<edge from-layer="932" from-port="1" to-layer="933" to-port="1"/>
		<edge from-layer="933" from-port="2" to-layer="934" to-port="0"/>
		<edge from-layer="934" from-port="1" to-layer="935" to-port="0"/>
		<edge from-layer="457" from-port="0" to-layer="935" to-port="1"/>
		<edge from-layer="458" from-port="0" to-layer="935" to-port="2"/>
		<edge from-layer="459" from-port="0" to-layer="935" to-port="3"/>
		<edge from-layer="460" from-port="0" to-layer="935" to-port="4"/>
		<edge from-layer="937" from-port="0" to-layer="938" to-port="0"/>
		<edge from-layer="938" from-port="1" to-layer="939" to-port="0"/>
		<edge from-layer="936" from-port="0" to-layer="939" to-port="1"/>
		<edge from-layer="935" from-port="5" to-layer="940" to-port="0"/>
		<edge from-layer="939" from-port="2" to-layer="940" to-port="1"/>
		<edge from-layer="941" from-port="0" to-layer="942" to-port="0"/>
		<edge from-layer="940" from-port="2" to-layer="943" to-port="0"/>
		<edge from-layer="942" from-port="1" to-layer="943" to-port="1"/>
		<edge from-layer="943" from-port="2" to-layer="944" to-port="0"/>
		<edge from-layer="944" from-port="1" to-layer="945" to-port="0"/>
		<edge from-layer="453" from-port="0" to-layer="945" to-port="1"/>
		<edge from-layer="454" from-port="0" to-layer="945" to-port="2"/>
		<edge from-layer="455" from-port="0" to-layer="945" to-port="3"/>
		<edge from-layer="456" from-port="0" to-layer="945" to-port="4"/>
		<edge from-layer="951" from-port="0" to-layer="952" to-port="0"/>
		<edge from-layer="952" from-port="1" to-layer="953" to-port="0"/>
		<edge from-layer="950" from-port="0" to-layer="953" to-port="1"/>
		<edge from-layer="895" from-port="2" to-layer="954" to-port="0"/>
		<edge from-layer="953" from-port="2" to-layer="954" to-port="1"/>
		<edge from-layer="955" from-port="0" to-layer="956" to-port="0"/>
		<edge from-layer="954" from-port="2" to-layer="957" to-port="0"/>
		<edge from-layer="956" from-port="1" to-layer="957" to-port="1"/>
		<edge from-layer="957" from-port="2" to-layer="958" to-port="0"/>
		<edge from-layer="958" from-port="1" to-layer="959" to-port="0"/>
		<edge from-layer="946" from-port="0" to-layer="959" to-port="1"/>
		<edge from-layer="947" from-port="0" to-layer="959" to-port="2"/>
		<edge from-layer="948" from-port="0" to-layer="959" to-port="3"/>
		<edge from-layer="949" from-port="0" to-layer="959" to-port="4"/>
		<edge from-layer="945" from-port="5" to-layer="960" to-port="0"/>
		<edge from-layer="935" from-port="5" to-layer="960" to-port="1"/>
		<edge from-layer="925" from-port="5" to-layer="960" to-port="2"/>
		<edge from-layer="915" from-port="5" to-layer="960" to-port="3"/>
		<edge from-layer="905" from-port="5" to-layer="960" to-port="4"/>
		<edge from-layer="959" from-port="5" to-layer="960" to-port="5"/>
		<edge from-layer="962" from-port="0" to-layer="963" to-port="0"/>
		<edge from-layer="963" from-port="1" to-layer="964" to-port="0"/>
		<edge from-layer="961" from-port="0" to-layer="964" to-port="1"/>
		<edge from-layer="960" from-port="6" to-layer="965" to-port="0"/>
		<edge from-layer="964" from-port="2" to-layer="965" to-port="1"/>
		<edge from-layer="966" from-port="0" to-layer="967" to-port="0"/>
		<edge from-layer="965" from-port="2" to-layer="968" to-port="0"/>
		<edge from-layer="967" from-port="1" to-layer="968" to-port="1"/>
		<edge from-layer="968" from-port="2" to-layer="969" to-port="0"/>
		<edge from-layer="969" from-port="1" to-layer="970" to-port="0"/>
		<edge from-layer="449" from-port="0" to-layer="970" to-port="1"/>
		<edge from-layer="450" from-port="0" to-layer="970" to-port="2"/>
		<edge from-layer="451" from-port="0" to-layer="970" to-port="3"/>
		<edge from-layer="452" from-port="0" to-layer="970" to-port="4"/>
		<edge from-layer="970" from-port="5" to-layer="971" to-port="0"/>
		<edge from-layer="1002" from-port="0" to-layer="1003" to-port="0"/>
		<edge from-layer="1003" from-port="1" to-layer="1004" to-port="0"/>
		<edge from-layer="1001" from-port="0" to-layer="1004" to-port="1"/>
		<edge from-layer="971" from-port="1" to-layer="1005" to-port="0"/>
		<edge from-layer="1004" from-port="2" to-layer="1005" to-port="1"/>
		<edge from-layer="1006" from-port="0" to-layer="1007" to-port="0"/>
		<edge from-layer="1005" from-port="2" to-layer="1008" to-port="0"/>
		<edge from-layer="1007" from-port="1" to-layer="1008" to-port="1"/>
		<edge from-layer="1008" from-port="2" to-layer="1009" to-port="0"/>
		<edge from-layer="1009" from-port="1" to-layer="1010" to-port="0"/>
		<edge from-layer="997" from-port="0" to-layer="1010" to-port="1"/>
		<edge from-layer="998" from-port="0" to-layer="1010" to-port="2"/>
		<edge from-layer="999" from-port="0" to-layer="1010" to-port="3"/>
		<edge from-layer="1000" from-port="0" to-layer="1010" to-port="4"/>
		<edge from-layer="1020" from-port="0" to-layer="1021" to-port="0"/>
		<edge from-layer="1021" from-port="1" to-layer="1022" to-port="0"/>
		<edge from-layer="1019" from-port="0" to-layer="1022" to-port="1"/>
		<edge from-layer="970" from-port="5" to-layer="1023" to-port="0"/>
		<edge from-layer="1022" from-port="2" to-layer="1023" to-port="1"/>
		<edge from-layer="1024" from-port="0" to-layer="1025" to-port="0"/>
		<edge from-layer="1023" from-port="2" to-layer="1026" to-port="0"/>
		<edge from-layer="1025" from-port="1" to-layer="1026" to-port="1"/>
		<edge from-layer="1026" from-port="2" to-layer="1027" to-port="0"/>
		<edge from-layer="1027" from-port="1" to-layer="1028" to-port="0"/>
		<edge from-layer="1015" from-port="0" to-layer="1028" to-port="1"/>
		<edge from-layer="1016" from-port="0" to-layer="1028" to-port="2"/>
		<edge from-layer="1017" from-port="0" to-layer="1028" to-port="3"/>
		<edge from-layer="1018" from-port="0" to-layer="1028" to-port="4"/>
		<edge from-layer="1030" from-port="0" to-layer="1031" to-port="0"/>
		<edge from-layer="1031" from-port="1" to-layer="1032" to-port="0"/>
		<edge from-layer="1029" from-port="0" to-layer="1032" to-port="1"/>
		<edge from-layer="1028" from-port="5" to-layer="1033" to-port="0"/>
		<edge from-layer="1032" from-port="2" to-layer="1033" to-port="1"/>
		<edge from-layer="1034" from-port="0" to-layer="1035" to-port="0"/>
		<edge from-layer="1033" from-port="2" to-layer="1036" to-port="0"/>
		<edge from-layer="1035" from-port="1" to-layer="1036" to-port="1"/>
		<edge from-layer="1036" from-port="2" to-layer="1037" to-port="0"/>
		<edge from-layer="1037" from-port="1" to-layer="1038" to-port="0"/>
		<edge from-layer="1011" from-port="0" to-layer="1038" to-port="1"/>
		<edge from-layer="1012" from-port="0" to-layer="1038" to-port="2"/>
		<edge from-layer="1013" from-port="0" to-layer="1038" to-port="3"/>
		<edge from-layer="1014" from-port="0" to-layer="1038" to-port="4"/>
		<edge from-layer="1038" from-port="5" to-layer="1039" to-port="0"/>
		<edge from-layer="1010" from-port="5" to-layer="1039" to-port="1"/>
		<edge from-layer="864" from-port="5" to-layer="1039" to-port="2"/>
		<edge from-layer="1041" from-port="0" to-layer="1042" to-port="0"/>
		<edge from-layer="1042" from-port="1" to-layer="1043" to-port="0"/>
		<edge from-layer="1040" from-port="0" to-layer="1043" to-port="1"/>
		<edge from-layer="1039" from-port="3" to-layer="1044" to-port="0"/>
		<edge from-layer="1043" from-port="2" to-layer="1044" to-port="1"/>
		<edge from-layer="1045" from-port="0" to-layer="1046" to-port="0"/>
		<edge from-layer="1044" from-port="2" to-layer="1047" to-port="0"/>
		<edge from-layer="1046" from-port="1" to-layer="1047" to-port="1"/>
		<edge from-layer="1047" from-port="2" to-layer="1048" to-port="0"/>
		<edge from-layer="1048" from-port="1" to-layer="1049" to-port="0"/>
		<edge from-layer="993" from-port="0" to-layer="1049" to-port="1"/>
		<edge from-layer="994" from-port="0" to-layer="1049" to-port="2"/>
		<edge from-layer="995" from-port="0" to-layer="1049" to-port="3"/>
		<edge from-layer="996" from-port="0" to-layer="1049" to-port="4"/>
		<edge from-layer="1051" from-port="0" to-layer="1052" to-port="0"/>
		<edge from-layer="1052" from-port="1" to-layer="1053" to-port="0"/>
		<edge from-layer="1050" from-port="0" to-layer="1053" to-port="1"/>
		<edge from-layer="1049" from-port="5" to-layer="1054" to-port="0"/>
		<edge from-layer="1053" from-port="2" to-layer="1054" to-port="1"/>
		<edge from-layer="1055" from-port="0" to-layer="1056" to-port="0"/>
		<edge from-layer="1054" from-port="2" to-layer="1057" to-port="0"/>
		<edge from-layer="1056" from-port="1" to-layer="1057" to-port="1"/>
		<edge from-layer="1057" from-port="2" to-layer="1058" to-port="0"/>
		<edge from-layer="1058" from-port="1" to-layer="1059" to-port="0"/>
		<edge from-layer="989" from-port="0" to-layer="1059" to-port="1"/>
		<edge from-layer="990" from-port="0" to-layer="1059" to-port="2"/>
		<edge from-layer="991" from-port="0" to-layer="1059" to-port="3"/>
		<edge from-layer="992" from-port="0" to-layer="1059" to-port="4"/>
		<edge from-layer="1061" from-port="0" to-layer="1062" to-port="0"/>
		<edge from-layer="1062" from-port="1" to-layer="1063" to-port="0"/>
		<edge from-layer="1060" from-port="0" to-layer="1063" to-port="1"/>
		<edge from-layer="1059" from-port="5" to-layer="1064" to-port="0"/>
		<edge from-layer="1063" from-port="2" to-layer="1064" to-port="1"/>
		<edge from-layer="1065" from-port="0" to-layer="1066" to-port="0"/>
		<edge from-layer="1064" from-port="2" to-layer="1067" to-port="0"/>
		<edge from-layer="1066" from-port="1" to-layer="1067" to-port="1"/>
		<edge from-layer="1067" from-port="2" to-layer="1068" to-port="0"/>
		<edge from-layer="1068" from-port="1" to-layer="1069" to-port="0"/>
		<edge from-layer="985" from-port="0" to-layer="1069" to-port="1"/>
		<edge from-layer="986" from-port="0" to-layer="1069" to-port="2"/>
		<edge from-layer="987" from-port="0" to-layer="1069" to-port="3"/>
		<edge from-layer="988" from-port="0" to-layer="1069" to-port="4"/>
		<edge from-layer="1071" from-port="0" to-layer="1072" to-port="0"/>
		<edge from-layer="1072" from-port="1" to-layer="1073" to-port="0"/>
		<edge from-layer="1070" from-port="0" to-layer="1073" to-port="1"/>
		<edge from-layer="1069" from-port="5" to-layer="1074" to-port="0"/>
		<edge from-layer="1073" from-port="2" to-layer="1074" to-port="1"/>
		<edge from-layer="1075" from-port="0" to-layer="1076" to-port="0"/>
		<edge from-layer="1074" from-port="2" to-layer="1077" to-port="0"/>
		<edge from-layer="1076" from-port="1" to-layer="1077" to-port="1"/>
		<edge from-layer="1077" from-port="2" to-layer="1078" to-port="0"/>
		<edge from-layer="1078" from-port="1" to-layer="1079" to-port="0"/>
		<edge from-layer="981" from-port="0" to-layer="1079" to-port="1"/>
		<edge from-layer="982" from-port="0" to-layer="1079" to-port="2"/>
		<edge from-layer="983" from-port="0" to-layer="1079" to-port="3"/>
		<edge from-layer="984" from-port="0" to-layer="1079" to-port="4"/>
		<edge from-layer="1081" from-port="0" to-layer="1082" to-port="0"/>
		<edge from-layer="1082" from-port="1" to-layer="1083" to-port="0"/>
		<edge from-layer="1080" from-port="0" to-layer="1083" to-port="1"/>
		<edge from-layer="1079" from-port="5" to-layer="1084" to-port="0"/>
		<edge from-layer="1083" from-port="2" to-layer="1084" to-port="1"/>
		<edge from-layer="1085" from-port="0" to-layer="1086" to-port="0"/>
		<edge from-layer="1084" from-port="2" to-layer="1087" to-port="0"/>
		<edge from-layer="1086" from-port="1" to-layer="1087" to-port="1"/>
		<edge from-layer="1087" from-port="2" to-layer="1088" to-port="0"/>
		<edge from-layer="1088" from-port="1" to-layer="1089" to-port="0"/>
		<edge from-layer="977" from-port="0" to-layer="1089" to-port="1"/>
		<edge from-layer="978" from-port="0" to-layer="1089" to-port="2"/>
		<edge from-layer="979" from-port="0" to-layer="1089" to-port="3"/>
		<edge from-layer="980" from-port="0" to-layer="1089" to-port="4"/>
		<edge from-layer="1095" from-port="0" to-layer="1096" to-port="0"/>
		<edge from-layer="1096" from-port="1" to-layer="1097" to-port="0"/>
		<edge from-layer="1094" from-port="0" to-layer="1097" to-port="1"/>
		<edge from-layer="1039" from-port="3" to-layer="1098" to-port="0"/>
		<edge from-layer="1097" from-port="2" to-layer="1098" to-port="1"/>
		<edge from-layer="1099" from-port="0" to-layer="1100" to-port="0"/>
		<edge from-layer="1098" from-port="2" to-layer="1101" to-port="0"/>
		<edge from-layer="1100" from-port="1" to-layer="1101" to-port="1"/>
		<edge from-layer="1101" from-port="2" to-layer="1102" to-port="0"/>
		<edge from-layer="1102" from-port="1" to-layer="1103" to-port="0"/>
		<edge from-layer="1090" from-port="0" to-layer="1103" to-port="1"/>
		<edge from-layer="1091" from-port="0" to-layer="1103" to-port="2"/>
		<edge from-layer="1092" from-port="0" to-layer="1103" to-port="3"/>
		<edge from-layer="1093" from-port="0" to-layer="1103" to-port="4"/>
		<edge from-layer="1089" from-port="5" to-layer="1104" to-port="0"/>
		<edge from-layer="1079" from-port="5" to-layer="1104" to-port="1"/>
		<edge from-layer="1069" from-port="5" to-layer="1104" to-port="2"/>
		<edge from-layer="1059" from-port="5" to-layer="1104" to-port="3"/>
		<edge from-layer="1049" from-port="5" to-layer="1104" to-port="4"/>
		<edge from-layer="1103" from-port="5" to-layer="1104" to-port="5"/>
		<edge from-layer="1106" from-port="0" to-layer="1107" to-port="0"/>
		<edge from-layer="1107" from-port="1" to-layer="1108" to-port="0"/>
		<edge from-layer="1105" from-port="0" to-layer="1108" to-port="1"/>
		<edge from-layer="1104" from-port="6" to-layer="1109" to-port="0"/>
		<edge from-layer="1108" from-port="2" to-layer="1109" to-port="1"/>
		<edge from-layer="1110" from-port="0" to-layer="1111" to-port="0"/>
		<edge from-layer="1109" from-port="2" to-layer="1112" to-port="0"/>
		<edge from-layer="1111" from-port="1" to-layer="1112" to-port="1"/>
		<edge from-layer="1112" from-port="2" to-layer="1113" to-port="0"/>
		<edge from-layer="1113" from-port="1" to-layer="1114" to-port="0"/>
		<edge from-layer="973" from-port="0" to-layer="1114" to-port="1"/>
		<edge from-layer="974" from-port="0" to-layer="1114" to-port="2"/>
		<edge from-layer="975" from-port="0" to-layer="1114" to-port="3"/>
		<edge from-layer="976" from-port="0" to-layer="1114" to-port="4"/>
		<edge from-layer="1114" from-port="5" to-layer="1115" to-port="0"/>
		<edge from-layer="1127" from-port="0" to-layer="1128" to-port="0"/>
		<edge from-layer="1128" from-port="1" to-layer="1129" to-port="0"/>
		<edge from-layer="1126" from-port="0" to-layer="1129" to-port="1"/>
		<edge from-layer="970" from-port="5" to-layer="1130" to-port="0"/>
		<edge from-layer="1129" from-port="2" to-layer="1130" to-port="1"/>
		<edge from-layer="1131" from-port="0" to-layer="1132" to-port="0"/>
		<edge from-layer="1130" from-port="2" to-layer="1133" to-port="0"/>
		<edge from-layer="1132" from-port="1" to-layer="1133" to-port="1"/>
		<edge from-layer="1133" from-port="2" to-layer="1134" to-port="0"/>
		<edge from-layer="1134" from-port="1" to-layer="1135" to-port="0"/>
		<edge from-layer="1122" from-port="0" to-layer="1135" to-port="1"/>
		<edge from-layer="1123" from-port="0" to-layer="1135" to-port="2"/>
		<edge from-layer="1124" from-port="0" to-layer="1135" to-port="3"/>
		<edge from-layer="1125" from-port="0" to-layer="1135" to-port="4"/>
		<edge from-layer="1137" from-port="0" to-layer="1138" to-port="0"/>
		<edge from-layer="1138" from-port="1" to-layer="1139" to-port="0"/>
		<edge from-layer="1136" from-port="0" to-layer="1139" to-port="1"/>
		<edge from-layer="1135" from-port="5" to-layer="1140" to-port="0"/>
		<edge from-layer="1139" from-port="2" to-layer="1140" to-port="1"/>
		<edge from-layer="1141" from-port="0" to-layer="1142" to-port="0"/>
		<edge from-layer="1140" from-port="2" to-layer="1143" to-port="0"/>
		<edge from-layer="1142" from-port="1" to-layer="1143" to-port="1"/>
		<edge from-layer="1143" from-port="2" to-layer="1144" to-port="0"/>
		<edge from-layer="1151" from-port="0" to-layer="1152" to-port="0"/>
		<edge from-layer="1152" from-port="1" to-layer="1153" to-port="0"/>
		<edge from-layer="1150" from-port="0" to-layer="1153" to-port="1"/>
		<edge from-layer="1114" from-port="5" to-layer="1154" to-port="0"/>
		<edge from-layer="1153" from-port="2" to-layer="1154" to-port="1"/>
		<edge from-layer="1155" from-port="0" to-layer="1156" to-port="0"/>
		<edge from-layer="1154" from-port="2" to-layer="1157" to-port="0"/>
		<edge from-layer="1156" from-port="1" to-layer="1157" to-port="1"/>
		<edge from-layer="1157" from-port="2" to-layer="1158" to-port="0"/>
		<edge from-layer="1158" from-port="1" to-layer="1159" to-port="0"/>
		<edge from-layer="1146" from-port="0" to-layer="1159" to-port="1"/>
		<edge from-layer="1147" from-port="0" to-layer="1159" to-port="2"/>
		<edge from-layer="1148" from-port="0" to-layer="1159" to-port="3"/>
		<edge from-layer="1149" from-port="0" to-layer="1159" to-port="4"/>
		<edge from-layer="1161" from-port="0" to-layer="1162" to-port="0"/>
		<edge from-layer="1162" from-port="1" to-layer="1163" to-port="0"/>
		<edge from-layer="1160" from-port="0" to-layer="1163" to-port="1"/>
		<edge from-layer="1159" from-port="5" to-layer="1164" to-port="0"/>
		<edge from-layer="1163" from-port="2" to-layer="1164" to-port="1"/>
		<edge from-layer="1165" from-port="0" to-layer="1166" to-port="0"/>
		<edge from-layer="1164" from-port="2" to-layer="1167" to-port="0"/>
		<edge from-layer="1166" from-port="1" to-layer="1167" to-port="1"/>
		<edge from-layer="1167" from-port="2" to-layer="1168" to-port="0"/>
		<edge from-layer="1203" from-port="0" to-layer="1204" to-port="0"/>
		<edge from-layer="1204" from-port="1" to-layer="1205" to-port="0"/>
		<edge from-layer="1202" from-port="0" to-layer="1205" to-port="1"/>
		<edge from-layer="1115" from-port="1" to-layer="1206" to-port="0"/>
		<edge from-layer="1205" from-port="2" to-layer="1206" to-port="1"/>
		<edge from-layer="1207" from-port="0" to-layer="1208" to-port="0"/>
		<edge from-layer="1206" from-port="2" to-layer="1209" to-port="0"/>
		<edge from-layer="1208" from-port="1" to-layer="1209" to-port="1"/>
		<edge from-layer="1209" from-port="2" to-layer="1210" to-port="0"/>
		<edge from-layer="1210" from-port="1" to-layer="1211" to-port="0"/>
		<edge from-layer="1198" from-port="0" to-layer="1211" to-port="1"/>
		<edge from-layer="1199" from-port="0" to-layer="1211" to-port="2"/>
		<edge from-layer="1200" from-port="0" to-layer="1211" to-port="3"/>
		<edge from-layer="1201" from-port="0" to-layer="1211" to-port="4"/>
		<edge from-layer="1221" from-port="0" to-layer="1222" to-port="0"/>
		<edge from-layer="1222" from-port="1" to-layer="1223" to-port="0"/>
		<edge from-layer="1220" from-port="0" to-layer="1223" to-port="1"/>
		<edge from-layer="1114" from-port="5" to-layer="1224" to-port="0"/>
		<edge from-layer="1223" from-port="2" to-layer="1224" to-port="1"/>
		<edge from-layer="1225" from-port="0" to-layer="1226" to-port="0"/>
		<edge from-layer="1224" from-port="2" to-layer="1227" to-port="0"/>
		<edge from-layer="1226" from-port="1" to-layer="1227" to-port="1"/>
		<edge from-layer="1227" from-port="2" to-layer="1228" to-port="0"/>
		<edge from-layer="1228" from-port="1" to-layer="1229" to-port="0"/>
		<edge from-layer="1216" from-port="0" to-layer="1229" to-port="1"/>
		<edge from-layer="1217" from-port="0" to-layer="1229" to-port="2"/>
		<edge from-layer="1218" from-port="0" to-layer="1229" to-port="3"/>
		<edge from-layer="1219" from-port="0" to-layer="1229" to-port="4"/>
		<edge from-layer="1231" from-port="0" to-layer="1232" to-port="0"/>
		<edge from-layer="1232" from-port="1" to-layer="1233" to-port="0"/>
		<edge from-layer="1230" from-port="0" to-layer="1233" to-port="1"/>
		<edge from-layer="1229" from-port="5" to-layer="1234" to-port="0"/>
		<edge from-layer="1233" from-port="2" to-layer="1234" to-port="1"/>
		<edge from-layer="1235" from-port="0" to-layer="1236" to-port="0"/>
		<edge from-layer="1234" from-port="2" to-layer="1237" to-port="0"/>
		<edge from-layer="1236" from-port="1" to-layer="1237" to-port="1"/>
		<edge from-layer="1237" from-port="2" to-layer="1238" to-port="0"/>
		<edge from-layer="1238" from-port="1" to-layer="1239" to-port="0"/>
		<edge from-layer="1212" from-port="0" to-layer="1239" to-port="1"/>
		<edge from-layer="1213" from-port="0" to-layer="1239" to-port="2"/>
		<edge from-layer="1214" from-port="0" to-layer="1239" to-port="3"/>
		<edge from-layer="1215" from-port="0" to-layer="1239" to-port="4"/>
		<edge from-layer="1239" from-port="5" to-layer="1240" to-port="0"/>
		<edge from-layer="1211" from-port="5" to-layer="1240" to-port="1"/>
		<edge from-layer="758" from-port="5" to-layer="1240" to-port="2"/>
		<edge from-layer="1242" from-port="0" to-layer="1243" to-port="0"/>
		<edge from-layer="1243" from-port="1" to-layer="1244" to-port="0"/>
		<edge from-layer="1241" from-port="0" to-layer="1244" to-port="1"/>
		<edge from-layer="1240" from-port="3" to-layer="1245" to-port="0"/>
		<edge from-layer="1244" from-port="2" to-layer="1245" to-port="1"/>
		<edge from-layer="1246" from-port="0" to-layer="1247" to-port="0"/>
		<edge from-layer="1245" from-port="2" to-layer="1248" to-port="0"/>
		<edge from-layer="1247" from-port="1" to-layer="1248" to-port="1"/>
		<edge from-layer="1248" from-port="2" to-layer="1249" to-port="0"/>
		<edge from-layer="1249" from-port="1" to-layer="1250" to-port="0"/>
		<edge from-layer="1194" from-port="0" to-layer="1250" to-port="1"/>
		<edge from-layer="1195" from-port="0" to-layer="1250" to-port="2"/>
		<edge from-layer="1196" from-port="0" to-layer="1250" to-port="3"/>
		<edge from-layer="1197" from-port="0" to-layer="1250" to-port="4"/>
		<edge from-layer="1252" from-port="0" to-layer="1253" to-port="0"/>
		<edge from-layer="1253" from-port="1" to-layer="1254" to-port="0"/>
		<edge from-layer="1251" from-port="0" to-layer="1254" to-port="1"/>
		<edge from-layer="1250" from-port="5" to-layer="1255" to-port="0"/>
		<edge from-layer="1254" from-port="2" to-layer="1255" to-port="1"/>
		<edge from-layer="1256" from-port="0" to-layer="1257" to-port="0"/>
		<edge from-layer="1255" from-port="2" to-layer="1258" to-port="0"/>
		<edge from-layer="1257" from-port="1" to-layer="1258" to-port="1"/>
		<edge from-layer="1258" from-port="2" to-layer="1259" to-port="0"/>
		<edge from-layer="1259" from-port="1" to-layer="1260" to-port="0"/>
		<edge from-layer="1190" from-port="0" to-layer="1260" to-port="1"/>
		<edge from-layer="1191" from-port="0" to-layer="1260" to-port="2"/>
		<edge from-layer="1192" from-port="0" to-layer="1260" to-port="3"/>
		<edge from-layer="1193" from-port="0" to-layer="1260" to-port="4"/>
		<edge from-layer="1262" from-port="0" to-layer="1263" to-port="0"/>
		<edge from-layer="1263" from-port="1" to-layer="1264" to-port="0"/>
		<edge from-layer="1261" from-port="0" to-layer="1264" to-port="1"/>
		<edge from-layer="1260" from-port="5" to-layer="1265" to-port="0"/>
		<edge from-layer="1264" from-port="2" to-layer="1265" to-port="1"/>
		<edge from-layer="1266" from-port="0" to-layer="1267" to-port="0"/>
		<edge from-layer="1265" from-port="2" to-layer="1268" to-port="0"/>
		<edge from-layer="1267" from-port="1" to-layer="1268" to-port="1"/>
		<edge from-layer="1268" from-port="2" to-layer="1269" to-port="0"/>
		<edge from-layer="1269" from-port="1" to-layer="1270" to-port="0"/>
		<edge from-layer="1186" from-port="0" to-layer="1270" to-port="1"/>
		<edge from-layer="1187" from-port="0" to-layer="1270" to-port="2"/>
		<edge from-layer="1188" from-port="0" to-layer="1270" to-port="3"/>
		<edge from-layer="1189" from-port="0" to-layer="1270" to-port="4"/>
		<edge from-layer="1272" from-port="0" to-layer="1273" to-port="0"/>
		<edge from-layer="1273" from-port="1" to-layer="1274" to-port="0"/>
		<edge from-layer="1271" from-port="0" to-layer="1274" to-port="1"/>
		<edge from-layer="1270" from-port="5" to-layer="1275" to-port="0"/>
		<edge from-layer="1274" from-port="2" to-layer="1275" to-port="1"/>
		<edge from-layer="1276" from-port="0" to-layer="1277" to-port="0"/>
		<edge from-layer="1275" from-port="2" to-layer="1278" to-port="0"/>
		<edge from-layer="1277" from-port="1" to-layer="1278" to-port="1"/>
		<edge from-layer="1278" from-port="2" to-layer="1279" to-port="0"/>
		<edge from-layer="1279" from-port="1" to-layer="1280" to-port="0"/>
		<edge from-layer="1182" from-port="0" to-layer="1280" to-port="1"/>
		<edge from-layer="1183" from-port="0" to-layer="1280" to-port="2"/>
		<edge from-layer="1184" from-port="0" to-layer="1280" to-port="3"/>
		<edge from-layer="1185" from-port="0" to-layer="1280" to-port="4"/>
		<edge from-layer="1282" from-port="0" to-layer="1283" to-port="0"/>
		<edge from-layer="1283" from-port="1" to-layer="1284" to-port="0"/>
		<edge from-layer="1281" from-port="0" to-layer="1284" to-port="1"/>
		<edge from-layer="1280" from-port="5" to-layer="1285" to-port="0"/>
		<edge from-layer="1284" from-port="2" to-layer="1285" to-port="1"/>
		<edge from-layer="1286" from-port="0" to-layer="1287" to-port="0"/>
		<edge from-layer="1285" from-port="2" to-layer="1288" to-port="0"/>
		<edge from-layer="1287" from-port="1" to-layer="1288" to-port="1"/>
		<edge from-layer="1288" from-port="2" to-layer="1289" to-port="0"/>
		<edge from-layer="1289" from-port="1" to-layer="1290" to-port="0"/>
		<edge from-layer="1178" from-port="0" to-layer="1290" to-port="1"/>
		<edge from-layer="1179" from-port="0" to-layer="1290" to-port="2"/>
		<edge from-layer="1180" from-port="0" to-layer="1290" to-port="3"/>
		<edge from-layer="1181" from-port="0" to-layer="1290" to-port="4"/>
		<edge from-layer="1296" from-port="0" to-layer="1297" to-port="0"/>
		<edge from-layer="1297" from-port="1" to-layer="1298" to-port="0"/>
		<edge from-layer="1295" from-port="0" to-layer="1298" to-port="1"/>
		<edge from-layer="1240" from-port="3" to-layer="1299" to-port="0"/>
		<edge from-layer="1298" from-port="2" to-layer="1299" to-port="1"/>
		<edge from-layer="1300" from-port="0" to-layer="1301" to-port="0"/>
		<edge from-layer="1299" from-port="2" to-layer="1302" to-port="0"/>
		<edge from-layer="1301" from-port="1" to-layer="1302" to-port="1"/>
		<edge from-layer="1302" from-port="2" to-layer="1303" to-port="0"/>
		<edge from-layer="1303" from-port="1" to-layer="1304" to-port="0"/>
		<edge from-layer="1291" from-port="0" to-layer="1304" to-port="1"/>
		<edge from-layer="1292" from-port="0" to-layer="1304" to-port="2"/>
		<edge from-layer="1293" from-port="0" to-layer="1304" to-port="3"/>
		<edge from-layer="1294" from-port="0" to-layer="1304" to-port="4"/>
		<edge from-layer="1290" from-port="5" to-layer="1305" to-port="0"/>
		<edge from-layer="1280" from-port="5" to-layer="1305" to-port="1"/>
		<edge from-layer="1270" from-port="5" to-layer="1305" to-port="2"/>
		<edge from-layer="1260" from-port="5" to-layer="1305" to-port="3"/>
		<edge from-layer="1250" from-port="5" to-layer="1305" to-port="4"/>
		<edge from-layer="1304" from-port="5" to-layer="1305" to-port="5"/>
		<edge from-layer="1307" from-port="0" to-layer="1308" to-port="0"/>
		<edge from-layer="1308" from-port="1" to-layer="1309" to-port="0"/>
		<edge from-layer="1306" from-port="0" to-layer="1309" to-port="1"/>
		<edge from-layer="1305" from-port="6" to-layer="1310" to-port="0"/>
		<edge from-layer="1309" from-port="2" to-layer="1310" to-port="1"/>
		<edge from-layer="1311" from-port="0" to-layer="1312" to-port="0"/>
		<edge from-layer="1310" from-port="2" to-layer="1313" to-port="0"/>
		<edge from-layer="1312" from-port="1" to-layer="1313" to-port="1"/>
		<edge from-layer="1313" from-port="2" to-layer="1314" to-port="0"/>
		<edge from-layer="1314" from-port="1" to-layer="1315" to-port="0"/>
		<edge from-layer="1174" from-port="0" to-layer="1315" to-port="1"/>
		<edge from-layer="1175" from-port="0" to-layer="1315" to-port="2"/>
		<edge from-layer="1176" from-port="0" to-layer="1315" to-port="3"/>
		<edge from-layer="1177" from-port="0" to-layer="1315" to-port="4"/>
		<edge from-layer="1317" from-port="0" to-layer="1318" to-port="0"/>
		<edge from-layer="1318" from-port="1" to-layer="1319" to-port="0"/>
		<edge from-layer="1316" from-port="0" to-layer="1319" to-port="1"/>
		<edge from-layer="1315" from-port="5" to-layer="1320" to-port="0"/>
		<edge from-layer="1319" from-port="2" to-layer="1320" to-port="1"/>
		<edge from-layer="1321" from-port="0" to-layer="1322" to-port="0"/>
		<edge from-layer="1320" from-port="2" to-layer="1323" to-port="0"/>
		<edge from-layer="1322" from-port="1" to-layer="1323" to-port="1"/>
		<edge from-layer="1323" from-port="2" to-layer="1324" to-port="0"/>
		<edge from-layer="1324" from-port="1" to-layer="1325" to-port="0"/>
		<edge from-layer="1170" from-port="0" to-layer="1325" to-port="1"/>
		<edge from-layer="1171" from-port="0" to-layer="1325" to-port="2"/>
		<edge from-layer="1172" from-port="0" to-layer="1325" to-port="3"/>
		<edge from-layer="1173" from-port="0" to-layer="1325" to-port="4"/>
		<edge from-layer="1327" from-port="0" to-layer="1328" to-port="0"/>
		<edge from-layer="1328" from-port="1" to-layer="1329" to-port="0"/>
		<edge from-layer="1326" from-port="0" to-layer="1329" to-port="1"/>
		<edge from-layer="1325" from-port="5" to-layer="1330" to-port="0"/>
		<edge from-layer="1329" from-port="2" to-layer="1330" to-port="1"/>
		<edge from-layer="1331" from-port="0" to-layer="1332" to-port="0"/>
		<edge from-layer="1330" from-port="2" to-layer="1333" to-port="0"/>
		<edge from-layer="1332" from-port="1" to-layer="1333" to-port="1"/>
		<edge from-layer="1333" from-port="2" to-layer="1334" to-port="0"/>
		<edge from-layer="1144" from-port="1" to-layer="1145" to-port="0"/>
		<edge from-layer="1168" from-port="1" to-layer="1169" to-port="0"/>
		<edge from-layer="1334" from-port="1" to-layer="1335" to-port="0"/>
	</edges>
	<rt_info>
		<MO_version value="2022.3.0-9052-9752fafe8eb-releases/2022/3"/>
		<Runtime_version value="2022.3.0-9052-9752fafe8eb-releases/2022/3"/>
		<conversion_parameters>
			<compress_to_fp16 value="True"/>
			<framework value="onnx"/>
			<input_model value="DIR/PHD_V1.4.1.20231017_bgr_yolov7_prunem_12.onnx"/>
			<model_name value="PHD_V1.4.1.20231017_bgr_yolov7_prunem_12"/>
			<scale_values value="images[255,255,255]"/>
		</conversion_parameters>
		<legacy_frontend value="False"/>
		<quantization_parameters/>
	</rt_info>
	<quantization_parameters>
		<config/>
		<version value="{}"/>
		<cli_params value="{}"/>
	</quantization_parameters>
</net>
